agent1_checkpoint_actor.pth (torch_old, 142733 bytes, 6 tensors)

fc1.weight f4 [200, 24]
000000 b1 b9 e1 bc 9f a4 47 be 3f bf 35 3c 96 f2 88 bd
       -0.027554365 -0.19496392 0.01109296 -0.066868946
000010 2e f6 44 bd ea 34 8b bc 2e 60 8f 3d ce 2a 24 be
       -0.048086338 -0.016993005 0.07000767 -0.16031954
000020 be f5 08 bd c3 6e 82 be c9 c0 8e bd e7 29 00 be
       -0.033437483 -0.2547513 -0.069703646 -0.12515984
000030 3f c6 9f bc d0 93 89 3d 4d cd 62 bd 85 df cd bd
       -0.01950371 0.06717646 -0.05537157 -0.100523986
000040 8c 4e ae bc e0 85 35 be b4 48 9b bc 19 5d 2c bd
       -0.021277688 -0.1772685 -0.018955566 -0.042080972
000050 1a dc df bb 2c c1 e5 3c 2e ad 93 3d 8b 42 f3 bd
       -0.006831658 0.028046213 0.07210766 -0.118779264
000060 28 37 f7 3c 30 d4 ac 3d d4 4c ec bd f5 ca 13 be
       0.030177668 0.08438909 -0.11538091 -0.1443289
000070 90 f0 46 be f0 cb 8c bd a8 7e 55 bd 9b ce 28 be
       -0.19427705 -0.068748355 -0.052122742 -0.16485064
000080 37 e1 98 3d 65 27 b7 3d 2f 4d 84 3b 07 d3 43 bd
       0.07464831 0.08943061 0.0040375213 -0.047808673
000090 97 b4 46 bd 47 66 b7 bb eb 9a a4 ba 51 c2 ce bd
       -0.048512068 -0.005596909 -0.0012558376 -0.10095657
0000a0 21 83 e0 3c a6 63 26 3d 77 16 70 bd 67 27 97 3c
       0.027406277 0.040622376 -0.058615174 0.018451406
0000b0 b2 02 ac 3c 5e 25 01 3e d5 8e b5 bd 22 59 00 bb
       0.020997379 0.1261191 -0.08865134 -0.0019584377
0000c0 88 5c 6a 3d aa 46 d2 bd 7d 4b 55 3b 01 fd 14 be
       0.05721715 -0.10267384 0.0032546215 -0.14549638
0000d0 07 96 8e bd f9 bf 8a 3d 14 57 81 3c 4d 6c 11 be
       -0.06962209 0.06774897 0.015788592 -0.1420147
0000e0 c3 52 be bc 8e 21 d1 bc 0f 3f af bd 4c c9 8a bd
       -0.023232823 -0.025528695 -0.08556949 -0.067766756
0000f0 e6 c2 7e 3d 9a 35 f0 3c c3 fc cb bd 3c 42 21 be
       0.06219759 0.029322434 -0.0996032 -0.15747923
000100 99 9e ca 3c ba b7 e8 bd e3 20 2e bc 47 a0 c0 3d
       0.024733828 -0.11363168 -0.010627958 0.094055705
000110 70 98 13 3e a8 4d 16 be 0b aa d3 3d bc fc 03 3e
       0.14413619 -0.14678061 0.103351675 0.1288938
000120 0c e6 31 bd 80 65 d2 bd ed ff 77 bc 04 c8 a6 bd
       -0.04343228 -0.10273266 -0.015136701 -0.08143619
000130 e2 5f 1e be 01 c7 02 bd 19 f8 af bc 4a 93 35 3d
       -0.15466264 -0.031928066 -0.021480607 0.04432992
000140 b6 1d c8 bd 22 e1 88 bd 00 05 c5 bc 50 56 14 3e
       -0.09771292 -0.06683566 -0.024050236 0.1448605
000150 00 a6 c9 bd 7c a0 11 be 54 b7 45 bd 04 20 c0 3d
       -0.09846115 -0.14221376 -0.04827054 0.093811065
000160 08 c0 b5 3b e3 1f bd bc 36 60 1f 3c 6d bd 59 3e
       0.0055465735 -0.023086494 0.009727528 0.21263666
000170 70 dd 86 bd 15 51 b1 be 14 64 75 bd 99 be 11 3e
       -0.065852046 -0.34632173 -0.059909895 0.14232863
000180 cf 1a 3b 3c 7c 9a a3 3c 84 09 c2 bd ba 0c 91 bd
       0.011419966 0.019971125 -0.09474471 -0.070825055
000190 51 97 a3 bd e5 00 7d 3d 89 92 5f bc fb d9 ca 3c
       -0.07987846 0.06176843 -0.013645777 0.024762144
0001a0 31 39 cd bc 1a 09 1e 3c ad 6f 55 bd 3d 41 13 3e
       -0.025051685 0.009645725 -0.052108455 0.14380355
0001b0 57 b7 8a 3d 30 06 92 3d d4 29 f3 bd a4 a0 ed 3d
       0.067732506 0.071300864 -0.118732125 0.116029054
0001c0 37 18 a2 bd 71 9c 36 bc 5a f4 b9 bd 30 a6 d6 bd
       -0.07914775 -0.011145697 -0.090798095 -0.104809165
0001d0 df 76 11 3e 67 c8 b6 3d 36 61 1e bd 52 b1 0c bc
       0.14205502 0.089249425 -0.038666926 -0.008587198
0001e0 b7 4e 44 bc 4f cb 85 be d2 a8 3b 39 07 c6 3e bd
       -0.011981658 -0.26131675 0.000178966 -0.046575572
0001f0 a2 58 bb 3c 51 a4 62 be 62 cd e0 bc c2 4e 0d be
       0.022869412 -0.22132994 -0.027441684 -0.13799575
000200 fc b2 0b 3d 57 eb 34 be 79 72 bc bd 35 c9 d3 bd
       0.03410624 -0.176679 -0.092015214 -0.103411116
000210 96 8f 43 3d 2a d7 2e bc 61 95 da bd 05 20 5b 3c
       0.047744356 -0.010671416 -0.10673023 0.013374333
000220 c2 76 69 3c 22 92 3b be 30 67 75 3d 03 f2 a3 bd
       0.0142495055 -0.18317464 0.05991286 -0.080051444
000230 80 f9 27 be 6b 67 b1 3d 95 57 26 bd 81 39 b4 bd
       -0.1640377 0.086623035 -0.04061087 -0.088000305
000240 cb 23 19 3c 1e d2 58 3c fe 8d 74 3c 3a a8 18 bd
       0.009346913 0.01323369 0.014926432 -0.03726981
000250 65 44 ca 3d 71 2d 1f be cd a0 c8 bd 89 6c 52 bc
       0.098763265 -0.15544678 -0.09796295 -0.01284326
000260 d1 ca e9 3c c4 86 0a 3d d1 46 15 3d ac d3 1c 3d
       0.028539093 0.03381993 0.03644449 0.038287804
000270 b2 48 00 3e 69 6e 76 3d cf 92 29 bd 81 b7 95 3d
       0.12527731 0.06016389 -0.041399773 0.07310391
000280 09 da 05 bd 87 a9 67 3d 92 46 e7 bd 44 17 08 3d
       -0.032678638 0.05655816 -0.11292757 0.033225313
000290 78 45 00 3e 97 ed 33 3e eb 88 56 bd c5 b4 08 bd
       0.125265 0.17571102 -0.05237667 -0.03337552
0002a0 ca 8b b3 3c ec 0c 58 be a7 3d c2 3d 97 5c 56 be
       0.021917243 -0.2109868 0.094844155 -0.20933758
0002b0 d5 ab d5 39 9b ee dd bd 9a 8f 4e bc 4d c1 23 be
       0.0004075455 -0.10836526 -0.0126074795 -0.15991707
0002c0 08 31 9f bd 81 7d 29 be 9a b8 b0 bc 92 ae 95 be
       -0.07773024 -0.16551782 -0.0215724 -0.2923475
0002d0 88 a7 9b bd 78 76 48 bd cc 48 61 3c ba 8d 47 be
       -0.076003134 -0.048941106 0.013750266 -0.19487658
0002e0 19 a1 34 3d be d9 cd bc ab f8 f5 3d 4a b3 f8 3c
       0.044098947 -0.025128242 0.1201032 0.03035893
0002f0 a1 3e 04 be d9 b1 20 bd 2b 64 a7 bb 9c 8e 99 bd
       -0.12914516 -0.03923211 -0.0051083765 -0.07497904
000300 7f e5 4c 3d a2 5d 24 be a4 35 93 bd 06 d3 0e 3e
       0.050023552 -0.16051343 -0.071879655 0.13947687
000310 56 b4 13 3e 0f 09 f0 3d 1a 65 81 bd 95 39 34 3d
       0.14424261 0.11720478 -0.06318112 0.044000227
000320 35 0e c1 bc 93 a4 d6 bd 49 98 e3 bb ee a6 fc 3b
       -0.023566345 -0.10480609 -0.006945644 0.0077103293
000330 32 c6 2a 3d 1f 76 c6 bc 1e 52 31 3d d3 4b 7c 3d
       0.04169292 -0.024226246 0.043291204 0.06159575
000340 7c 8f 6b bd bb 35 70 bd fc 23 87 bd 5f bf a2 bd
       -0.057509884 -0.05864499 -0.0659866 -0.079466574
000350 05 3a 17 bd 0b 76 64 bd 61 35 f7 bb 62 24 1f be
       -0.036920566 -0.055776637 -0.007544205 -0.15541223
000360 cd 4f 88 bd 0a 3e ce 3d 17 bd ec bc cc 7f 48 be
       -0.06655846 0.10070427 -0.028898759 -0.1958
000370 01 5b 5c 3d 88 81 0b 3e 08 58 50 3c 06 03 5d be
       0.053797726 0.13623631 0.012716301 -0.21583185
000380 39 90 77 3d e0 63 30 3e df 55 b6 3d a2 66 e5 bd
       0.060440276 0.172256 0.08903097 -0.11201216
000390 31 f1 7b 3c d7 a5 1b 3e a0 4b da bc 7a bc e2 bd
       0.015377329 0.15199982 -0.026647389 -0.11071105
0003a0 a1 f6 4e 3d d0 00 7e 3d 33 7f 01 3d 3c 6d 07 bc
       0.050528172 0.062012494 0.031615447 -0.00826579
0003b0 53 1c ae 3d bd f8 45 3e 74 60 06 bd a9 f7 83 bd
       0.08501496 0.19333167 -0.03280683 -0.06443722
0003c0 df 39 23 bc 6b ca 96 3d 61 be 4f bd 26 b9 04 ba
       -0.009962528 0.07362827 -0.05071867 -0.00050629897
0003d0 36 d3 9a bd e5 03 08 be af a3 3d bd 24 8d eb 3c
       -0.075598165 -0.13282736 -0.04629868 0.028753825
0003e0 e6 3b 83 bd c8 7c 11 3d 2e 6b f8 3d 47 8a 9a 3d
       -0.06407909 0.03551939 0.12129818 0.075459056
0003f0 33 25 f4 3b 0d 29 35 be 8b 16 7a 3a 44 10 94 bc
       0.0074507236 -0.17691441 0.00095401023 -0.018074162

fc1.bias f4 [200]
000000 d1 ae 27 3e 80 f7 88 3c 3c 7e 17 3e 4c 5e a1 bc
       0.16375281 0.01671958 0.14794248 -0.019698285
000010 91 5e 12 be 91 82 de bd 67 95 39 bc d1 7b 71 bd
       -0.14293887 -0.10864747 -0.011327124 -0.05895597
000020 43 68 51 3e f7 ad 07 be d4 93 eb bd f3 bf 04 ba
       0.20449929 -0.13249956 -0.11502805 -0.0005064003
000030 8a e5 65 3e 00 18 b1 3c 27 81 11 3e f6 1b a3 3d
       0.22450843 0.02161789 0.14209424 0.079643175
000040 ec 8d 8f bd dd 88 1c 3e fe 35 f2 3d 27 f1 0d be
       -0.07009491 0.15286584 0.118267044 -0.13861524
000050 87 1c 0a 3c 32 9c 28 3e 63 5a 13 3e d2 3a db bd
       0.008429653 0.16465834 0.14389949 -0.107045785
000060 c5 94 20 bd 4e 21 04 3e 38 01 85 3d 0b 05 bd 3c
       -0.039204378 0.1290333 0.06494373 0.023073694
000070 f5 4d 86 be 9d b7 3b be cd c4 c4 bd a6 34 a1 3d
       -0.26231351 -0.18331762 -0.09607849 0.0787137
000080 16 d2 59 bd 0f 6a 28 be 7c 56 7d bd cf 16 66 3e
       -0.05317887 -0.16446708 -0.061850056 0.22469638
000090 cb 6b 05 be e2 f5 5c bd ad 06 cb 3d 38 79 6c 3e
       -0.13029401 -0.05394543 0.09913383 0.23093116
0000a0 a7 62 23 be d9 04 95 bd ca 6e 7b bd d6 c9 5c 3e
       -0.15955602 -0.07276315 -0.061384954 0.2156137
0000b0 5f 58 67 bd 68 39 0d 3b 45 b3 95 3d 6e ed b6 bd
       -0.05648076 0.002154911 0.073095836 -0.08932005
0000c0 45 d5 f1 bd 7c 95 a3 bd 06 cb 1b bd f7 4a 68 3e
       -0.11808256 -0.07987496 -0.038035415 0.22684847
0000d0 23 3b 25 3d c6 58 22 3e b3 45 0f bc 25 02 76 bd
       0.0403396 0.15854177 -0.008744645 -0.06006064
0000e0 42 ab a3 3c 35 71 db 3d 62 be 11 bd 7a 74 5c be
       0.019979123 0.10714952 -0.035581954 -0.21528807
0000f0 58 0a d3 bd 6a 55 27 bc 01 d4 8e 3e 77 3e 9a bd
       -0.10304707 -0.010213235 0.2789612 -0.075314455
000100 2b 5c 27 be b5 43 2b be 53 7e ff bd 82 98 8f 3d
       -0.16343753 -0.16725047 -0.12475266 0.070115104
000110 b8 20 66 3e cf d4 c5 3d fe 2a 42 3d b7 8b 0a 3e
       0.22473419 0.09659731 0.04740428 0.1352986
000120 ba 28 3e 3e ac 7d 16 3e ba 86 af b8 98 73 e0 3d
       0.18570223 0.14696378 -8.369745e-05 0.10959548
000130 23 dc 82 3d 22 5e c7 bd c4 59 2a be d6 e0 16 3e
       0.06389644 -0.09734751 -0.16635805 0.14734206
000140 0b 75 80 3d 39 b3 6f be a6 69 2f be 47 64 0c be
       0.06272324 -0.23408212 -0.17130145 -0.13710128
000150 c2 f7 08 3e 17 be c5 3d 55 1b 7d bd 97 77 44 3d
       0.13375762 0.096553974 -0.061793644 0.047965612
000160 19 84 47 bd be 1d 64 3e 2c 1d aa bd ce 50 bb bd
       -0.048709963 0.2227697 -0.08306345 -0.09146272
000170 56 e0 2c be d4 5a de 3d 1a 42 67 bd 04 7e 23 3e
       -0.16882452 0.10857168 -0.056459524 0.1596604
000180 be bf db 3d a1 af db bc 99 9f 93 bd 09 5d 4a bd
       0.10729931 -0.026817145 -0.07208175 -0.04940513
000190 ea 10 a7 3d c5 27 c1 bd 45 7a 8d 3d 26 9e 4b 3d
       0.08157523 -0.094314136 0.06908087 0.04971137
0001a0 04 5e ea bd 52 c9 12 be f2 b4 41 be 66 01 c6 3d
       -0.11443713 -0.1433461 -0.18916681 0.096682355
0001b0 8f f8 37 3e 7d 85 0c 3d 64 b3 38 bd b7 20 1c be
       0.17965911 0.03430699 -0.045092955 -0.15246855
0001c0 64 20 07 be 83 80 97 bd f8 01 84 be 50 31 5b be
       -0.1319595 -0.073975585 -0.25782752 -0.2140553
0001d0 8a 87 eb bc ab 83 48 be 1c 04 8f bd 4a f9 54 3c
       -0.028751153 -0.19581477 -0.06983206 0.012998888
0001e0 97 e0 0d 3e 0a fc 26 be 87 63 4a 3e 29 44 c2 3d
       0.13855205 -0.16307083 0.19764529 0.09485657
0001f0 ca ed 34 3e 44 47 70 3d 8c ed 0e 3e a9 d6 36 be
       0.17668834 0.058661714 0.13957804 -0.17855324
000200 49 59 a1 3d 29 df 7e 3e e1 8f 89 3d f8 92 2e bd
       0.07878358 0.24889816 0.06716896 -0.04262063
000210 14 49 91 bd 11 ce 2f bd 81 4f bb 3d f4 49 96 bd
       -0.07094017 -0.04292113 0.091460235 -0.07338324
000220 2f ee 61 bc 08 ae c1 bd 39 f3 f3 bc 9b e9 81 bc
       -0.013789698 -0.09457022 -0.029779064 -0.015858462
000230 74 8d e2 bd ac ac 25 be 84 cb 63 3e 40 84 60 3d
       -0.11062136 -0.1617915 0.22245604 0.054813623
000240 06 44 99 3b c0 1f 40 3e 00 23 80 3e a8 92 37 be
       0.0046772985 0.18762112 0.25026703 -0.17927039
000250 01 d1 ce bd cc 91 48 be 4a c8 1d 3d 88 18 4d 3c
       -0.10098458 -0.19586867 0.03852109 0.012518056
000260 00 6b b2 bd 4c d1 0f 3e a1 c5 47 bd b3 48 24 be
       -0.08711815 0.14044684 -0.048772458 -0.16043358
000270 75 b8 fe bd e7 1f e6 bd e0 e9 7b 3e a3 f6 f1 bd
       -0.12437526 -0.11236554 0.24600935 -0.1181462
000280 f5 ac 16 bd 83 dc 85 3d 4f fb 24 be 49 6c bc bd
       -0.03678604 0.065362 -0.16111492 -0.09200341
000290 74 38 22 3e 26 d3 a6 bd b7 d9 cd bd f2 7d a8 bd
       0.15841848 -0.08145742 -0.100512914 -0.08227147
0002a0 1f 1a 98 3c c4 de 72 39 8d eb c4 3d dd f3 51 be
       0.018567143 0.00023161905 0.0961524 -0.20503183
0002b0 98 5a 66 3e 2a 62 20 be 47 34 79 3d b5 3e 0a bd
       0.22495496 -0.15662447 0.06084087 -0.03375121
0002c0 74 79 9b bd c3 c2 5d 3e 69 ac 81 be 21 35 87 3d
       -0.07591525 0.21656327 -0.2532685 0.066019304
0002d0 fd be fe 3d d3 21 6a 3e 18 a1 4c be 68 31 a2 3d
       0.12438772 0.22864465 -0.19983327 0.0791958
0002e0 24 9f b5 3e 28 95 27 be a3 a6 bc 3b 41 68 09 be
       0.35472977 -0.16365492 0.0057571693 -0.13418676
0002f0 ce f7 11 3d 9f 01 40 be 45 20 f8 3d b5 d6 ca 3c
       0.035636716 -0.18750618 0.1211553 0.024760583
000300 e4 f6 3f 3e 02 0d c2 bc 9e b7 73 bd 28 00 d8 bd
       0.18746525 -0.023687843 -0.059501283 -0.10546905
000310 81 0b 48 be 7f e0 ed bd 2c be eb 3d 7f 7c 2c be
       -0.19535638 -0.11615085 0.11510882 -0.16844366

fc2.weight f4 [150, 200]
000000 92 27 a6 3d 21 8e b6 3d 8e 44 b3 3d 0d 34 46 3e
       0.08113016 0.08913828 0.0875331 0.19355793
000010 c7 6e 5a 3d da 0e 9a bd da b0 0a be ea 9e 53 be
       0.0533283 -0.07522364 -0.13544026 -0.2066609
000020 7e 57 7f 3c e5 c7 76 bd 95 99 bb 3d da 27 2f bd
       0.015584825 -0.060249228 0.09160153 -0.042762615
000030 66 4c da bc 56 f5 00 be 36 3c 10 3e b6 63 f6 bc
       -0.026647758 -0.12593588 0.14085469 -0.030076843
000040 8c e6 44 bd 3a e5 ac be ac f3 c2 bd ed 82 f1 3b
       -0.04807143 -0.33768636 -0.09519133 0.007370344
000050 c9 ea 32 3e 9e 9f 8b bd 89 3d e0 3c c9 46 b3 3d
       0.17472376 -0.06817554 0.027373092 0.087537356
000060 2b 99 2f 3e ed e1 b2 3d ca c7 82 3d 06 fc 0c 3d
       0.17148273 0.08734498 0.06385763 0.034420036
000070 4b 63 cf bd 91 95 6d 3d c8 3a 63 3d ce fd 12 bd
       -0.101263605 0.058003966 0.05547598 -0.03588658
000080 9f 1b 18 3e 22 70 08 be 66 2c d7 3d 08 e6 36 bd
       0.14854287 -0.13324025 0.10506515 -0.04465297
000090 59 32 39 bd 71 fe f0 bd 6a f9 c4 3c 39 d3 6c ba
       -0.04521403 -0.11767281 0.024044711 -0.000903416
0000a0 92 9d aa 3c d9 0a cd bd dc 9f 8d 3d 96 36 be 3c
       0.020827089 -0.10011835 0.069152564 0.023219388
0000b0 0e ea be bc 12 0c f3 3d d1 d6 9b bd a9 35 94 3d
       -0.023304965 0.118675366 -0.07609332 0.07236797
0000c0 72 7b 2c bd 39 5a 95 3a 75 f6 fe bc 8a 06 c9 3d
       -0.042109914 0.0011394686 -0.03112338 0.098157
0000d0 ec 36 e9 bd fe f1 01 bd 47 7c d6 bd 44 d3 c9 3c
       -0.11387429 -0.031724922 -0.10472923 0.024636872
0000e0 32 45 df bc d5 43 8b 3d e5 05 93 3d 27 8d bb 3d
       -0.027254675 0.06800047 0.07178859 0.09157782
0000f0 23 5a 15 be ce f5 df bd 38 b1 41 bd 6f 3b 7c bd
       -0.14585166 -0.109355554 -0.04728815 -0.061580118
000100 a9 b9 3c 3d ad e9 52 3d 8f 78 a8 3d e2 56 67 3d
       0.046075497 0.05149238 0.0822612 0.056479342
000110 18 d1 9a bd 08 30 7e bc ee 1e 89 bd 97 54 d6 3d
       -0.07559413 -0.015514381 -0.066953525 0.10465353
000120 1d d8 f8 3b d1 66 de bb e4 39 d7 3d 1f ba 4c bd
       0.007594122 -0.006787159 0.10509089 -0.049982186
000130 83 ff fc bd 10 c8 5b 3d 4d 60 5f 3d 12 4d 08 3e
       -0.123534225 0.05365759 0.0545352 0.1331065
000140 b6 29 f2 3c 70 df 6d bd 60 b1 08 bd 37 68 e7 bc
       0.029560905 -0.058074415 -0.033372283 -0.028247936
000150 d1 9e 9b 3c 3e 7d e5 bc d0 90 db 3c 20 a9 39 bd
       0.018996628 -0.028013822 0.02680245 -0.045327306
000160 9c a8 52 bd 72 32 d1 bd cd ad f4 bc 1d 26 71 ba
       -0.05143033 -0.102147 -0.02986803 -0.00091991
000170 5c 8b 40 bc 46 c4 c4 3d 27 1d 36 bd fa cf fd 3d
       -0.011751976 0.09607749 -0.044461396 0.12393184
000180 8c af f9 bd fd 68 5d 3e bf a0 7b 3d 71 d6 84 39
       -0.12191686 0.21622081 0.061432596 0.00025336773
000190 d5 99 fc bc e6 b6 a6 3d f9 a2 55 3d 26 96 d2 3d
       -0.030835072 0.08140354 0.052157376 0.10282545
0001a0 99 95 e1 3d c1 d2 36 bd 20 73 33 3e df bb a9 bb
       0.110148616 -0.044634584 0.17524385 -0.0051798667
0001b0 a3 e1 ef bd 2b 44 29 bc 27 02 36 bd e0 75 92 3d
       -0.11712959 -0.010331194 -0.044435646 0.07151389
0001c0 74 17 32 bc aa 2d 71 3d fc 8f 73 bc 99 a4 93 bd
       -0.0108698495 0.05888144 -0.0148658715 -0.07209129
0001d0 9b ea 13 3e 1c 3b a3 3d 88 8b 4a 3d 3b 71 01 be
       0.14444964 0.079702586 0.049449474 -0.1264085
0001e0 32 fa 1e bd 80 ee 73 bd 91 f0 7c bd a8 13 a5 bc
       -0.038812824 -0.059553623 -0.06175286 -0.020150974
0001f0 fe 49 69 bd 68 fe df bd f4 a8 28 be 55 00 c3 bd
       -0.05695533 -0.10937196 -0.164707 -0.09521548
000200 e6 0d 3f 3d 2c ec 32 be 49 f1 82 bd 8a 6e f8 bd
       0.046644114 -0.17472905 -0.06393678 -0.12130459
000210 bf 16 07 bc de 0b 0b be 57 ae f5 bc 1a f8 d7 3d
       -0.008245169 -0.13578746 -0.029990358 0.105453685
000220 de 82 13 bd b5 58 a3 3d 62 b8 e1 3d 70 a6 e4 bb
       -0.036013477 0.07975904 0.11021496 -0.0069778487
000230 00 72 93 bc b5 8f 7a 3b 9f fe 94 3d db 43 be 3c
       -0.017998695 0.0038232629 0.072751276 0.023225715
000240 c8 a7 78 3d b5 db 07 3e ac 25 70 bc c3 6a 27 be
       0.060706884 0.13267405 -0.014657419 -0.1634932
000250 b0 12 ab bd 46 f5 6a 3d ce f8 d3 bc a2 02 05 3d
       -0.08353174 0.057362817 -0.025875475 0.032473214
000260 04 60 b1 bd bf d7 90 bd 89 c9 ff bd ee 2a 55 bd
       -0.08660892 -0.070724 -0.12489612 -0.052042894
000270 38 89 22 3d 2e 91 3c 3d 58 0c fb bc 14 c1 c6 b9
       0.039681643 0.04603689 -0.030645534 -0.00037909357
000280 e0 fd b0 3d 9e 70 e8 bd 48 a5 11 bd 01 c5 19 bd
       0.08642173 -0.11349605 -0.035558015 -0.037541393
000290 50 71 6e 3d fe d8 d1 3d 03 e8 db bc 70 19 cd 3d
       0.058213532 0.10246466 -0.02684403 0.100146174
0002a0 52 70 86 3d d7 02 fc 3d a7 6d c4 3d cf ac c8 3d
       0.06564392 0.12305229 0.09591227 0.097985856
0002b0 58 34 07 bc 99 ed 69 bd 50 46 ae bc f7 8c 88 bd
       -0.008252226 -0.057111356 -0.021273762 -0.06667512
0002c0 0e e9 9c 3d 8a 08 3c bd 02 1b 26 be 22 f6 1e be
       0.07661639 -0.04590658 -0.1622124 -0.1552358
0002d0 0b 73 46 bc d9 02 b0 bc c2 fc bb bd 74 81 21 bd
       -0.012112389 -0.021485733 -0.09179069 -0.039430097
0002e0 71 9d 76 3d 2b b7 17 3c ac 67 ee bc 59 78 73 bd
       0.06020874 0.009259979 -0.029102169 -0.059440944
0002f0 42 fc 17 3d 71 8d ab 3d 8c c5 90 bd b0 87 11 3d
       0.037105806 0.08376587 -0.07068929 0.035529792
000300 f5 d9 35 3e a5 27 c1 3d 95 7e d9 ba 4d 98 ad 3d
       0.17758925 0.0943139 -0.001659351 0.08476315
000310 92 2a 8f bc 41 de 5f 3d 0a a7 2c 3d a9 56 c3 bd
       -0.017476354 0.054655317 0.04215149 -0.095380135
000320 aa 79 40 3d 42 3b af 3b cf 90 08 3e 82 21 8e 3d
       0.046991028 0.0053476403 0.1333649 0.06939985
000330 be 0e fd bc d8 17 a6 ba e0 c1 7f be 75 0a c8 3d
       -0.030890819 -0.0012671901 -0.24976301 0.097676195
000340 75 91 08 3d 2f 08 42 3d 52 2f 6c 3d 30 b4 81 bd
       0.033341844 0.047371086 0.057662316 -0.06333196
000350 d7 be 32 bc 84 c5 1e be 03 01 19 3d 3c 7d 79 3d
       -0.010909758 -0.15505034 0.03735448 0.06091045
000360 42 86 87 3d f0 1c 88 3d 9e e8 98 bb a6 82 d6 3d
       0.066174045 0.066461444 -0.004666402 0.10474138
000370 6e c6 dc bd 52 88 21 bd ce 54 89 3d b7 cf c0 3d
       -0.10780035 -0.039436646 0.06705628 0.094146185
000380 04 71 71 bc ea fb 03 be b0 e5 4b be 10 be ff bd
       -0.014736418 -0.12889066 -0.19911838 -0.124874234
000390 a8 22 b2 3d 1e de 98 3d 11 94 b2 bd a4 3b 84 bd
       0.086980164 0.074642405 -0.08719648 -0.06456688
0003a0 51 28 35 bd 76 16 95 be 75 f8 fa bb bb d3 ca 3d
       -0.0442279 -0.291187 -0.007659013 0.09903666
0003b0 51 30 60 bb 41 3a a8 3c 9e 95 8a bc 81 4e 1a 3e
       -0.0034208486 0.02053559 -0.016917046 0.1506901
0003c0 42 29 d4 3d 74 3f 8d be 83 34 05 be f7 b3 62 bd
       0.10359432 -0.27587473 -0.13008313 -0.05534741
0003d0 23 05 60 be 67 97 b0 bd 67 df 87 bc 08 0a 3c bd
       -0.2187696 -0.08622628 -0.016586019 -0.045908004
0003e0 e3 f2 4e 3d 54 d5 5d bd 24 f3 40 3c 84 52 8b bd
       0.050524604 -0.054158524 0.011776719 -0.06802848
0003f0 71 17 ba bd 4d 58 e7 3c ea 18 f9 bd 1b 18 f8 3d
       -0.09086502 0.028240347 -0.12162955 0.12113973

fc2.bias f4 [150]
000000 df f7 9c bd 1f 77 87 3a be ce 91 3d 07 a8 48 bd
       -0.07664465 0.0010335183 0.07119511 -0.04898837
000010 37 a9 12 3e b6 12 9e bc 7f b7 f8 3c ae a0 19 3d
       0.14322363 -0.019296031 0.030360935 0.03750675
000020 0c f5 b0 bd 71 03 cd 3d 4e 85 21 3d e0 e6 d9 bd
       -0.08640489 0.10010422 0.03943377 -0.10639739
000030 3a e2 15 3a 25 32 86 bc cd a0 38 bc 5f 17 8f bc
       0.00057176093 -0.016381333 -0.011268807 -0.017467199
000040 9e 16 6e bc f4 f7 04 bd f8 da 08 bd e4 6a 5a 3b
       -0.01453176 -0.03246303 -0.03341195 0.0033327872
000050 f0 d8 f9 bc c2 95 28 bd 1d 39 8d bb cd c2 1e 3d
       -0.030498952 -0.041158445 -0.004309787 0.038759995
000060 ee 50 02 3e b6 26 87 3c f8 e7 f3 3c 3d 17 3b 3d
       0.12726185 0.016497951 0.029773697 0.04567646
000070 22 ed 0f 3e 6b d5 1e 3d 39 89 cc bd d1 d0 a4 3d
       0.14055303 0.03877775 -0.09987111 0.08047641
000080 5a 58 73 bd 48 78 9e bd e2 86 ee 39 d6 de 22 bd
       -0.05941043 -0.077377856 0.00045495393 -0.039763294
000090 2a 3d 97 3d b5 bb 91 bd 7c 76 02 3c 2b a9 ad bd
       0.07384713 -0.071158804 0.007962819 -0.08479532
0000a0 a1 b1 15 3e 11 e1 b2 bc e3 0e 30 bd 8d 4b ed bb
       0.14618541 -0.021835836 -0.042982947 -0.0072416724
0000b0 83 e4 89 bc 85 8f c5 bc 99 3c f2 3d fe 41 d1 bc
       -0.016832596 -0.024116287 0.11827964 -0.025544163
0000c0 ad 84 0c 3d 1b bb 17 3c 53 92 e9 bb 61 d9 6e bd
       0.034306217 0.009260918 -0.007128039 -0.058312777
0000d0 0a 63 a9 bc ef 90 bd bc c1 3c 78 3c 6c 79 53 bc
       -0.020677108 -0.023140399 0.015151204 -0.012907367
0000e0 fe e6 b7 3d 1e fc 9b 3d a2 fb ac 3c 5b bf 47 bd
       0.08979605 0.07616447 0.021116082 -0.048766475
0000f0 f2 1a 61 3c 4d 52 52 3d e1 1b 8f bc 81 7c ab 3d
       0.013739334 0.05134802 -0.017469348 0.083733566
000100 16 12 d6 bc 88 03 a1 3c 51 85 6b bd c9 ae 86 3c
       -0.02613167 0.019655004 -0.057500187 0.016440766
000110 8e 1c 91 bd 20 45 d1 3d d1 fa 5c 3d f2 07 03 3e
       -0.070855245 0.10218263 0.053950135 0.12796
000120 4b de d1 3d b1 19 7b 3d 6b a3 d9 bc 0d 17 21 3b
       0.10247477 0.061303798 -0.026567182 0.002458039
000130 3e 53 dd 3c 30 a6 de 3d 20 d7 1f be 0b 0a b3 bb
       0.027017232 0.108715415 -0.15609407 -0.0054638437
000140 51 18 17 bd bd 09 94 bc 34 f8 3e bd 86 79 b9 3a
       -0.036888424 -0.01807105 -0.046623424 0.0014150597
000150 bd 14 00 bd 1e 16 67 3d 5d 51 bf 3c 4c 27 9d 3d
       -0.031269778 0.056417577 0.023354227 0.07673511
000160 54 60 29 bd cd a4 bb bc 72 33 84 bd 76 3b fb b9
       -0.04135163 -0.022905732 -0.06455125 -0.00047918753
000170 26 7d 19 be d5 af 9f bc a6 cc 39 3d a8 ba 97 3c
       -0.14989147 -0.019493023 0.045361184 0.018521622
000180 10 09 aa bc db 6d a2 bd a6 1d 88 bd af 38 54 3c
       -0.020756274 -0.079311095 -0.0664628 0.012952968
000190 79 cf f6 3c e8 2f 6e bd 01 32 20 3d 5c 6e 10 3d
       0.030128228 -0.058151156 0.039110187 0.035261497
0001a0 0d c7 93 3d c8 cc 23 bd a1 29 af bc 5d fa 56 3d
       0.072157 -0.039990216 -0.021382155 0.05248486
0001b0 c0 1b 49 bd 43 c8 28 3d 8a ec b9 3d 57 66 af 3b
       -0.04909873 0.04120661 0.09078319 0.005352776
0001c0 3b 93 f3 3a 52 54 3e 3d c5 ee 84 bc 40 5f 84 bd
       0.0018583307 0.046467133 -0.016227135 -0.0646348
0001d0 77 be 45 bd f0 d2 8c bd 5f f2 cb bd 26 d5 14 3d
       -0.048277345 -0.06876171 -0.09958338 0.036336087
0001e0 33 da 49 bd a6 e4 07 3d 81 a1 76 bd 38 e6 7f bd
       -0.049280357 0.03317704 -0.060212616 -0.062475413
0001f0 0d b3 84 bc 66 ec 67 3d 17 2f 43 3c 82 dd ab bb
       -0.01619866 0.05662193 0.011913083 -0.0052449116
000200 48 f5 63 3d 44 67 90 bd 28 21 4e bc 45 fe 6c 3d
       0.05565384 -0.07050946 -0.012581147 0.057859678
000210 9c 67 0e 3d 0f 79 94 bd 00 33 ba 3c 9b 24 b6 3c
       0.03476678 -0.072496526 0.022729397 0.022234252
000220 05 70 4b 3c f5 a8 86 3c 74 85 ab 3d fd 44 e5 bb
       0.012416844 0.016437987 0.083750635 -0.0069967494
000230 ef 3a 64 3d f9 d0 65 bc 1c fb 09 3c 69 85 51 bd
       0.055720266 -0.014026874 0.008421686 -0.05115262
000240 e3 32 54 bd ef ac 41 3d b6 93 33 3d 22 9c f2 39
       -0.05180634 0.047284063 0.04384204 0.00046274165
000250 d5 41 4f 3d 7d e4 1d 3d
       0.05059989 0.03854798

fc3.weight f4 [2, 150]
000000 1f 79 31 3e 47 56 b5 3e 26 1c 30 bd 1c bc 0b bc
       0.1733136 0.35417387 -0.042995594 -0.0085287355
000010 f1 39 93 bc f5 34 67 3e b8 ee 6a 3e e1 2c 3c 3e
       -0.017971965 0.22578795 0.22942626 0.18376495
000020 16 c2 ac 3e 7e de 9c 3d b8 27 1f 3e 16 3a 37 3e
       0.33741826 0.076596245 0.15542495 0.17893252
000030 87 c9 56 bb 0d bd 23 3d 87 26 3b 3c a0 3a 01 3e
       -0.0032773928 0.039975215 0.01142276 0.1262002
000040 14 36 96 3c 8d 78 eb bc d4 2c 80 bd ca 08 98 3d
       0.018336333 -0.028744007 -0.0625855 0.074235514
000050 05 0d 66 3e 72 c0 1e 3d d2 58 d1 3c 97 17 b9 3e
       0.22465904 0.03875775 0.025555048 0.3615081
000060 90 e2 b9 bc 21 57 71 3d 4c 0c 99 3b a7 08 42 bd
       -0.022691041 0.058920983 0.0046706554 -0.047371533
000070 a5 1e 23 bc bf 8f 5d 3c 14 08 1a 3e 0b b6 a3 3d
       -0.009956037 0.013523041 0.15042144 0.07993706
000080 55 ce 89 3e ac e0 8c 3e a4 29 47 3e d3 95 89 3e
       0.2691523 0.2751516 0.19449478 0.2687212
000090 26 72 7d 3d 41 5e 82 3c ce d0 a2 3d 3a 55 3a bd
       0.06187644 0.015914084 0.079499826 -0.045491435
0000a0 95 36 5c bc d8 d3 de bd 06 b6 4f bd de 79 82 bd
       -0.013440748 -0.1088025 -0.0507107 -0.063709006
0000b0 b1 7f e2 3d 0c 4a dc bd 14 c4 74 3c 20 57 79 bc
       0.110595115 -0.10756311 0.014939327 -0.015218526
0000c0 ff 35 16 3e 57 ab 53 bd b2 dc 84 3c 6b 69 2e 3d
       0.14669035 -0.051677074 0.016218517 0.042581003
0000d0 e5 6f 3e 3e 9c 8f 36 3e 2b 04 8f 3e 95 4f a2 3e
       0.18597372 0.1782822 0.27932867 0.3170134
0000e0 90 b9 44 bd a4 2e 70 3e 66 cc 7b 3e 27 d2 9f 3c
       -0.04802853 0.23455292 0.2458969 0.019509388
0000f0 b4 d6 37 3e 47 6e 94 3e 4a 27 15 3d d6 f7 97 3c
       0.17952996 0.28990385 0.036414422 0.018550795
000100 fd 70 28 3e fa 8a 8c bd a2 04 47 3e e0 9d 8d 3d
       0.16449352 -0.06862445 0.19435361 0.06914878
000110 f9 b9 40 bd d9 98 94 3b 64 35 dd bc 71 91 8c 3b
       -0.047052357 0.0045348224 -0.027002998 0.004289799
000120 ed 83 31 bd b4 42 9c bb 00 7b c0 3c 43 25 80 3e
       -0.043338705 -0.004768694 0.023496151 0.25028428
000130 7e 72 5b 3d cd f6 0c 3e 0c 58 f7 bd 1d 3d cf 3d
       0.053575985 0.13766022 -0.120773405 0.10119078
000140 9f 84 6d 3e 19 d7 b2 bc 2e 68 6d bd 60 ba 58 bd
       0.23195122 -0.021831082 -0.05796068 -0.052912116
000150 8f d1 28 3d b7 d1 fc 3c 6a 34 84 bd b8 2e 0c bd
       0.041215476 0.030861719 -0.0645531 -0.034224242
000160 b5 77 60 bd 6c 62 83 3d fd 5b 5a 3e bb 03 0d 3d
       -0.05480166 0.06415257 0.21324153 0.034427386
000170 1e 5a fc bc 9c 2c 6a 3e 1b 5e 61 3c 80 a2 23 3d
       -0.03080469 0.2286858 0.013755347 0.039949894
000180 08 2c 23 bd b6 c1 b1 3e d6 40 2c bd a2 ae 92 3d
       -0.039836913 0.34718102 -0.04205402 0.07162215
000190 9f 99 03 3e 9e 0b 27 bd 60 77 63 bd f4 1b a0 3e
       0.1285157 -0.040782563 -0.055533767 0.31271327
0001a0 55 b5 91 3d 26 75 81 bd f6 48 c1 3d 7d 4d 64 3e
       0.071146645 -0.063211724 0.09437744 0.22295184
0001b0 8a 2a bd 3d ec 5a 8c 3d 93 d7 1c bd f1 2f b4 3c
       0.09236629 0.068532795 -0.038291525 0.021995516
0001c0 f7 03 72 bd 6b eb 24 3e 1e 16 82 3e 1d 1f 31 3e
       -0.059085812 0.1610543 0.254075 0.17297025
0001d0 14 1e 39 bb 1e 1f 0c bd a8 3d 57 3e f7 70 55 3e
       -0.0028246688 -0.034209363 0.21019614 0.20843874
0001e0 53 fa b4 bc c6 81 27 3d 4b cb 42 be 0a 08 8a bc
       -0.02209202 0.040895246 -0.19022863 -0.016849536
0001f0 76 f7 c9 3d 25 0e 41 3e 13 02 d6 3d 57 fc 22 3e
       0.098616526 0.18853052 0.104496144 0.15916573
000200 7b 48 54 3e a7 5a 26 3e 68 67 54 bd b9 2b 8b 3c
       0.20730774 0.16245519 -0.05185643 0.016988622
000210 e7 f3 bf 3d f5 aa 4a bc 00 21 b1 3d 11 f5 3f 3e
       0.093726926 -0.012369861 0.086488724 0.18745829
000220 75 94 91 bc a7 ca d2 3e 86 ed d5 bc 4c 4d 52 3e
       -0.017770985 0.41170236 -0.026114237 0.20537299
000230 c4 97 50 3e c8 94 52 3d 20 a3 27 3e d5 20 27 3e
       0.20370394 0.05141142 0.16370821 0.16321118
000240 60 1d d3 3d 74 67 71 bb f6 1f 47 3d 0c 32 25 3d
       0.10308337 -0.0036835345 0.048614465 0.04033093
000250 fa 10 3d 3e f2 13 d3 3c bf 2b 92 3d ff bb d9 bb
       0.18463507 0.025766347 0.0713725 -0.0066447253
000260 a1 22 58 bd f5 c0 4e bc f3 d4 09 be 8b 10 98 bb
       -0.0527674 -0.012619247 -0.1346014 -0.004640644
000270 49 66 54 3e 06 df 98 be 87 ae 26 3d f7 08 67 be
       0.20742144 -0.29857653 0.040693786 -0.22562014
000280 7d a2 5b bd e1 44 0f 3d 0e 3e cc 3d ed 2a 0a 3e
       -0.053621758 0.034977797 0.099727735 0.13492937
000290 c4 0b ac 3d 3e 61 bd 3d a3 ad a6 3e 10 13 ee 3d
       0.084006816 0.09247063 0.3255435 0.1162473
0002a0 14 a0 b2 3e e9 29 b1 bd 88 22 ca bd ab 35 90 be
       0.34887755 -0.08650572 -0.098698676 -0.28165945
0002b0 b9 a8 88 be dc 4c 94 3d 90 06 a1 be c6 96 2c 3e
       -0.26691225 0.07241222 -0.3145032 0.1685439
0002c0 08 7c b8 3d 66 4d 8a bd c6 95 7f be 3d 74 2b 3e
       0.09008032 -0.06753044 -0.24959478 0.1674356
0002d0 76 48 3e 3e 9e ba 04 3e f6 8d 73 be 0e e8 e6 be
       0.18582329 0.12961814 -0.23784623 -0.4509892
0002e0 c7 a5 a1 be 07 08 11 bd d6 37 74 3e d6 d6 74 3e
       -0.3157179 -0.035408046 0.23849425 0.23910078
0002f0 0f b7 b7 be d5 33 8e 3d 43 b5 12 be 12 b3 45 be
       -0.3588185 0.0694348 -0.14326958 -0.19306591
000300 73 35 86 3c 1a ff 67 be 2a 9d 29 bd 55 82 67 3e
       0.016382908 -0.22655907 -0.04140965 0.22608311
000310 45 ba 8b be b2 d8 54 be 28 22 99 3d f4 e0 f9 3c
       -0.2729055 -0.20785788 0.07477218 0.030502774
000320 11 8b 0c be 61 07 1d 3e 97 9d 68 be e8 94 86 3d
       -0.13724925 0.15334846 -0.22716366 0.0657137
000330 4f 32 9c bc 0c e6 f7 bd 91 ec 4c bd d2 49 b6 bd
       -0.019066958 -0.12104425 -0.050030295 -0.08900799
000340 d6 fa 35 3d 87 c6 61 3e 1c 57 04 bc 9f 7b 52 3d
       0.04442867 0.22048388 -0.008077409 0.051387426
000350 48 c7 a0 3d 0e 42 43 be 8a dd 80 be 35 bd 13 3e
       0.0785051 -0.19068167 -0.2516902 0.14427646
000360 99 bb 13 be 9f dc 9e be e1 e8 55 3d 75 5b 25 be
       -0.14427032 -0.31027696 0.052224044 -0.1614817
000370 9e 8f 4c be 77 78 58 be 8e 8b ad bd 83 35 ea bd
       -0.1997666 -0.21139704 -0.084738836 -0.11435988
000380 8f a2 f2 bd 61 d8 20 3e 82 08 38 bf 0d d8 cd be
       -0.11847412 0.15707542 -0.7188798 -0.40203896
000390 b7 d4 87 3e 4f b5 6d 3a 6c 94 f6 bc a1 1e b5 be
       0.26529476 0.00090678496 -0.03010007 -0.3537493
0003a0 78 b4 1a 3d c5 e9 aa bd 53 42 02 3e 3d 14 2a 3e
       0.037769765 -0.08345369 0.12720613 0.16609283
0003b0 c0 df 41 3d 5e 89 9b be a7 83 f2 3b c5 ea 6d be
       0.047332525 -0.3037824 0.007400948 -0.23234089
0003c0 b8 f1 7e 3e c5 54 d4 3d 38 f3 83 3e a9 92 2e 3c
       0.24896896 0.10367731 0.257715 0.010655084
0003d0 eb 2c 93 be a5 1c 04 3d 02 89 86 be 58 1b ee 3c
       -0.28745207 0.03225388 -0.26276404 0.029065773
0003e0 69 94 09 3d 84 e6 d3 be ba 08 12 be 66 53 8f 3c
       0.0335888 -0.41386807 -0.14261141 0.017495822
0003f0 b3 9e 26 3d c4 b3 c2 3d 6a fa 2e be b2 b6 35 3e
       0.04067869 0.09506944 -0.17087713 0.17745474

fc3.bias f4 [2]
000000 e4 e8 82 bd 70 85 e2 bc
       -0.063920766 -0.027651519
