agent2_checkpoint_critic.pth (torch_old, 164531 bytes, 5 tensors)

fcs1.weight f4 [200, 52]
-0.07681158 -0.44235352 0.11479246 0.68506116 0.03414767 -0.69583905 0.0076531405 0.68446535
0.109604634 -0.5527673 0.053635675 -0.49004525 -0.03349421 -0.37981367 0.055174645 -0.48426348
0.017147886 -0.4171973 0.06546392 0.36831287 -0.048279542 -0.71354896 0.05438731 0.3201133
0.42739254 0.130849 -0.10537538 0.13994578 0.042809907 -0.79466116 -0.10772675 0.09510476
0.5086891 0.3053283 -0.026447121 0.25843567 -0.04754394 -0.30219436 -0.037620794 0.21710576
0.5019391 0.2619235 0.039618183 -0.13993287 0.09915133 -0.6797636 0.08544342 -0.13155088
-1.9760264 0.79244715 -0.11386907 0.87280977 0.2738159 0.76977617 -0.15247747 -0.010328779
0.2768981 0.115088776 -0.08255869 -0.054884285 0.3117164 0.7222582 -0.03428287 -0.057032794
0.19004197 -0.34577903 0.07030817 -0.032165043 0.31136808 0.6634948 0.018066803 -0.039618436
0.038785648 -0.6259508 0.03838243 -0.035573263 0.4320719 0.744505 0.17837663 0.049381483
-0.26154888 0.22014232 0.16676868 0.058997225 0.61667085 0.7309481 0.058388017 -0.017034959
-0.12196054 -0.32456407 0.03527193 -0.0020360698 1.0299436 0.8119701 0.08088886 -0.06966843
-0.13169393 -0.5696665 0.14945047 -0.07950656 0.9274504 -0.314648 1.5237731 -0.41455755
0.11202136 -0.28634784 0.029737066 0.043438863 0.14737308 0.17005372 -0.04827126 -0.00847938
0.12735382 -0.27124006 -0.05411721 0.036908224 0.09111078 0.11747148 0.052840143 -0.05807916
-0.003705174 -0.20871171 0.018504519 0.0051746024 0.15146078 0.0054931245 0.009953751 0.07474383
-0.13206334 0.15068589 -0.003921211 -0.09379618 -0.07683088 0.19582683 -0.023748612 -0.13778113
0.09231023 0.34510213 -0.008724566 -0.09230695 -0.11902395 0.15859014 0.014638156 -0.16419114
0.19180319 0.06092513 0.013415689 -0.43822905 -0.19989397 -0.064507335 0.025030464 -0.5021788
-0.9373627 -0.19208042 0.20302443 0.11231104 0.029797368 0.09103812 -0.046320826 0.20334704
0.73717934 -0.17397596 0.049896948 0.18668355 -0.06411277 0.17660946 -0.012394266 0.072820395
-0.15168369 0.031719863 -0.026739607 0.08500338 -0.074711464 0.05211453 0.077159844 -0.38417202
-0.6117492 0.22301146 0.09527958 -0.41351235 0.06954321 0.40169537 -0.0025861226 -0.045871995
-0.74534625 -0.08819946 -0.01743219 -0.03838568 0.27100113 0.22321945 0.030067913 -0.059788927
0.038772788 0.00096144783 0.009825487 -0.015634818 0.20995815 0.23961622 -0.07596922 0.031098543
0.679662 0.29379052 0.009666991 0.062440928 0.09928896 -0.57620114 -0.9169116 0.0049810056
0.13735099 1.00417 -0.07406987 0.06576702 -0.117679626 0.17364404 -0.10335901 0.12996009
0.22384812 0.875813 0.06549511 -0.2362031 0.030636724 0.07045852 0.11257162 -0.21905091
0.1848534 0.8860442 -0.06755312 0.26733702 0.07882457 -0.13510992 -0.15306869 0.2242007
0.09006001 0.625811 -0.0009764744 -0.22694415 0.040557235 0.19951704 0.025757454 -0.2572599
0.23112394 0.51338387 -0.11369089 -0.083542354 0.030639097 0.12286692 -0.08178378 -0.1290094
0.3140895 0.475064 0.086017504 -0.30904007 -0.0654556 -0.15597187 0.124338485 -0.33306277
00000000: 644f 9dbd 297c e2be 4f18 eb3d 2b60 2f3f
00000010: 6dde 0b3d 8222 32bf 32c7 fa3b 1f39 2f3f
00000020: 6578 e03d 2882 0dbf 15b1 5b3d 36e7 fabe
00000030: 3a31 09bd f076 c2be cffe 613d 62f1 f7be
00000040: b979 8c3c e29a d5be f311 863d 8193 bc3e
00000050: c5c0 45bd 25ab 36bf 3ac5 5e3d e4e5 a33e
00000060: 32d3 da3e 48fd 053e 0ccf d7bd f24d 0f3e
00000070: 7159 2f3d ea6e 4bbf d89f dcbd 49c6 c23d
00000080: 7339 023f fe53 9c3e a2a7 d8bc ae51 843e
00000090: 6fbd 42bd 38b9 9abe 4318 1abd f950 5e3e
000000a0: 157f 003f d61a 863e ad46 223d 904a 0fbe
000000b0: da0f cb3d fd04 2ebf f6fc ae3d 46b5 06be
000000c0: 6fee fcbf d1dd 4a3f 3034 e9bd 7670 5f3f
000000d0: 9931 8c3e 0d10 453f 0e23 1cbe 0a3a 29bc
000000e0: 96c5 8d3e aab3 eb3d 8814 a9bd 58ce 60bd
000000f0: 4b99 9f3e eae5 383f 326c 0cbd 389b 69bd
00000100: 5d9a 423e f309 b1be bbfd 8f3d 7ebf 03bd
00000110: a36b 9f3e ccda 293f d500 943c f146 22bd
00000120: b3dd 1e3d 503e 20bf e536 1d3d 45b5 11bd
00000130: 8738 dd3e e197 3e3f 5da8 363e 3d44 4a3d
00000140: bce9 85be fd6c 613e 69c5 2a3e 13a7 713d
00000150: 24de 1d3f 6a1f 3b3f 4628 6f3d e68c 8bbc
00000160: 73c6 f9bd 432d a6be 4d79 103d 956f 05bb
00000170: 31d5 833f 46dd 4f3f 0fa9 a53d 52ae 8ebd
00000180: c6da 06be aad5 11bf 8b09 193e 56d4 a2bd
00000190: 646d 6d3f 8b19 a1be ff0a c33f e340 d4be
000001a0: 746b e53d 2f9c 92be 269b f33c f3ec 313d
000001b0: f8e8 163e 9022 2e3e 16b8 45bd 19ed 0abc
000001c0: 0a69 023e fadf 8abe 02aa 5dbd 142d 173d
000001d0: 4a98 ba3d e394 f03d e86e 583d 6ae4 6dbd
000001e0: 81d2 72bb 86b8 55be ca96 973c b68f a93b
000001f0: 8918 1b3e abff b33b 0f15 233c 4b13 993d
00000200: 9d3b 07be 674d 1a3e 817d 80bb 3618 c0bd
00000210: 8259 9dbd d486 483e 738c c2bc 7f16 0dbe
00000220: 250d bd3d 3ab1 b03e 7bf1 0ebc 6d0b bdbd
00000230: d4c2 f3bd 7465 223e e0d4 6f3c b921 28be
00000240: 0e68 443e a18c 793d 7acd 5b3c 8f5f e0be
00000250: 01b1 4cbe 6c1c 84bd b00c cd3c ca8e 00bf
00000260: 00f7 6fbf bbb0 44be a3e5 4f3e 5503 e63d
00000270: 9c19 f43c 3272 ba3d e8ba 3dbd 353a 503e
00000280: c9b7 3c3f c126 32be be60 4c3d f929 3f3e
00000290: 8e4d 83bd 1cd9 343e 5211 4bbc dc22 953d
000002a0: f852 1bbe b0ec 013d 050d dbbc 4116 ae3d
000002b0: 5302 99bd 0c76 553d fb05 9e3d 32b2 c4be
000002c0: 989b 1cbf 1e5d 643e f121 c33d e4b7 d3be
000002d0: ac6c 8e3d 04ab cd3e f07b 29bb 46e4 3bbd
000002e0: 03cf 3ebf eba1 b4bd f4cd 8ebc 4e3a 1dbd
000002f0: a9c0 8a3e a493 643e fc50 f63c 3ce5 74bd
00000300: 37d0 1e3d ac09 7c3a 14fb 203c 9714 80bc
00000310: 45ff 563e f45d 753e c095 9bbd 5fc2 fe3c
00000320: 54fe 2d3f b66b 963e 4d62 1e3c 0fc2 7f3d
00000330: 0358 cb3d eb81 13bf b8ba 6abf b437 a33b
00000340: bda5 0c3e a488 803f f2b1 97bd dcb0 863d
00000350: 0402 f1bd becf 313e e3ad d3bd 4214 053e
00000360: 7138 653e 4835 603f 4d22 863d 3adf 71be
00000370: def9 fa3c 8e4c 903d f38b e63d e24e 60be
00000380: 364a 3d3e cbd3 623f 4a59 8abd 66e0 883e
00000390: c76e a13d 415a 0abe 0abe 1cbe de94 653e
000003a0: 6271 b83d 2635 203f 16fa 7fba 0c64 68be
000003b0: 581f 263d 324e 4c3e 4c01 d33c 92b7 83be
000003c0: c1ab 6c3e 206d 033f c5d6 e8bd 4118 abbd
000003d0: d8fe fa3c a7a1 fb3d 417e a7bd 0a1b 04be
000003e0: 57d0 a03e 973b f33e f229 b03d 803a 9ebe
000003f0: 960d 86bd 17b7 1fbe 2da5 fe3d 3487 aabe

fcs1.bias f4 [200]
-0.25265586 -0.47138986 -0.3469138 0.27793032 -0.62572956 0.029538205 -0.431565 0.12015478
-0.34770945 -0.33642447 -0.5942079 -0.5180689 -0.045483913 -0.2658628 -0.2005281 -0.76532716
-1.0103251 -0.21168587 -1.0292937 -0.46824035 -0.10222897 -0.7599925 -0.2887371 0.8052487
-0.47813 -0.651962 0.06791929 -0.24117535 -0.541054 0.14023271 -0.29639828 -0.5166253
-0.07599745 -0.2932434 -0.57738173 -0.6026637 0.12713452 -0.66630775 -0.23520933 -0.028237676
-0.7262085 0.46489003 -0.50325966 -0.778072 0.049572963 -0.36980772 -0.44779116 -0.63632303
-0.33210284 -0.63644195 0.45847684 -0.36793828 -0.058607854 -0.2193269 -0.6304328 -0.28309333
-0.69175684 -0.48745045 -0.2916152 -0.4425847 -0.035582215 0.7802109 -0.6839643 0.6859959
0.10702686 -0.28025576 -0.39919293 -0.1376708 -0.66489 -0.19760811 -0.26649436 -0.38143918
-0.43282947 -0.4067081 -0.14829266 -0.61172795 -0.66277057 -0.63891613 -0.30343762 -0.07189383
-0.5259555 -0.961721 -0.8522767 -0.49416322 -0.32237557 -0.27759263 -0.33689052 -0.45035243
0.14381322 -0.19747737 -0.05189233 -0.46370667 0.06344807 0.22698271 -1.4076873 0.1305205
-0.60483265 -0.10762429 0.527288 -0.6551722 -0.28888074 -0.3389956 -0.2817119 -0.24887232
-0.15712388 -0.44247228 -0.5069557 -0.47604346 -0.7467199 -0.2009755 -0.123887315 -0.73269415
0.035742704 -0.53221184 -0.16218235 -0.7438346 -0.055125766 -0.4352183 0.011337746 -0.699011
-0.6167865 -0.09755289 -0.050637577 -0.38978276 -0.85397005 -0.32754296 -0.37931964 -0.35722008
0.06796382 0.8665628 -0.1703482 -0.042593602 -0.28717288 -0.3697577 -0.7718079 -0.6716405
0.008184278 0.058844775 -0.5980176 -0.58188343 -0.23502964 -0.3286387 0.09690043 -0.53324693
-0.15044245 -0.33592513 -0.88995546 -0.5700181 -0.40495512 -0.8550148 -0.5591875 -0.07019552
-0.25910282 -1.0770078 -0.6476175 -0.8076184 0.20204666 -0.7985168 -0.20285912 -0.2827345
-0.19912305 -0.610915 -0.5271922 -0.13508217 -0.25704202 -0.31812364 -0.5461191 -0.5498318
-0.47177967 -0.09110012 -0.19152646 -0.16779536 -0.251155 -0.21606898 0.039923426 -0.17026247
-0.4656251 -0.24309787 -0.63385004 -0.21104184 -0.14794782 -0.4640377 -0.13771215 -0.52395326
-0.2783226 -0.066561185 -0.64003485 -0.13124456 -0.42790177 -0.4559733 -0.6265246 -0.09926932
-0.804926 -0.48421702 -0.85175705 -0.1067366 -0.65839237 -0.13383256 0.14012599 0.5688734
00000000: 1c5c 81be 035a f1be b09e b1be e24c 8e3e
00000010: d02f 20bf 1bfa f13c 16f6 dcbe b613 f63d
00000020: f906 b2be d43f acbe 021e 18bf 2aa0 04bf
00000030: 574d 3abd 2b1f 88be 3d57 4dbe 7bec 43bf
00000040: 5552 81bf 2ec4 58be e5bf 83bf 33bd efbe
00000050: 6c5d d1bd de8e 42bf 59d5 93be c724 4e3f
00000060: 75cd f4be fbe6 26bf 4519 8b3d acf6 76be
00000070: 8482 0abf 2a99 0f3e 84c1 97be 8e41 04bf
00000080: 8da4 9bbd 0024 96be 4acf 13bf 2b48 1abf
00000090: 8d2f 023e 2593 2abf b7da 70be b352 e7bc
000000a0: cde8 39bf 1106 ee3e a0d5 00bf ba2f 47bf
000000b0: 050d 4b3d 7057 bdbe e244 e5be 11e6 22bf
000000c0: 6209 aabe dced 22bf 7abd ea3e 6862 bcbe
000000d0: ca0e 70bd 3b97 60be 0b64 21bf 9cf1 90be
000000e0: fa16 31bf 1b93 f9be 964e 95be 769a e2be
000000f0: a8be 11bd e7bb 473f 4918 2fbf 6d9d 2f3f
00000100: e630 db3d af7d 8fbe 0463 ccbe 93f9 0cbe
00000110: 3b36 2abf c859 4abe f371 88be ff4b c3be
00000120: d39b ddbe 0b3c d0be 08da 17be 349a 1cbf
00000130: 55ab 29bf 0290 23bf 2d5c 9bbe 133d 93bd
00000140: 05a5 06bf 5933 76bf ce2e 5abf f602 fdbe
00000150: 690e a5be 9f20 8ebe ea7c acbe 9894 e6be
00000160: c643 133e 8237 4abe 0d8d 54bd f66a edbe
00000170: 10f1 813d 286e 683e 192f b4bf 2aa7 053e
00000180: 50d6 1abf 206a dcbd 59fc 063f 5eb9 27bf
00000190: 2de8 93be d590 adbe 8b3c 90be 63d8 7ebe
000001a0: 15e5 20be ba8b e2be d9c7 01bf f8bb f3be
000001b0: 0929 3fbf 85cc 4dbe a2b8 fdbd d891 3bbf
000001c0: f166 123d 093f 08bf 2113 26be f26b 3ebf
000001d0: 8ecb 61bd efd4 debe f4c1 393c 63f2 32bf
000001e0: b8e5 1dbf cfc9 c7bd 5969 4fbd 9b91 c7be
000001f0: c89d 5abf b6b3 a7be 2f36 c2be 8de5 b6be
00000200: 9e30 8b3d 0fd7 5d3f c26f 2ebe a176 2ebd
00000210: 5308 93be e250 bdbe 3495 45bf a2f0 2bbf
00000220: 5a17 063c 3807 713d ae17 19bf 50f6 14bf
00000230: 9cab 70be 5543 a8be bc73 c63d df82 08bf
00000240: 960d 1abe 61fe abbe 1fd4 63bf b5ec 11bf
00000250: 4756 cfbe 40e2 5abf e926 0fbf abc2 8fbd
00000260: 20a9 84be 64db 89bf 43ca 25bf 14c0 4ebf
00000270: 52e5 4e3e 996b 4cbf 4dba 4fbe 94c2 90be
00000280: eae6 4bbe ed64 1cbf 11f6 06bf fb52 0abe
00000290: 039b 83be 1ae1 a2be 76ce 0bbf c7c1 0cbf
000002a0: 1b8d f1be b392 babd 831f 44be 8cd2 2bbe
000002b0: 6397 80be 3041 5dbe bf86 233d 4959 2ebe
000002c0: 6a66 eebe a6ee 78be ff43 22bf 5a1b 58be
000002d0: a27f 17be 5996 edbe 6a04 0dbe cd21 06bf
000002e0: 4d80 8ebe 3b51 88bd 53d9 23bf f964 06be
000002f0: f115 dbbe 5575 e9be eb63 20bf b74d cbbd
00000300: a10f 4ebf 4beb f7be c00c 5abf b898 dabd
00000310: 678c 28bf 670b 09be 307d 0f3e b0a1 113f

fc2.weight f4 [150, 200]
-0.38582626 0.37204883 -0.05982573 -0.01925847 0.14265788 0.011557193 0.32144517 -0.65781885
-0.062798746 0.23767395 0.18523408 0.29622528 0.009509411 -1.221883 0.12667021 -0.014430773
-0.22494538 -0.15222746 -0.48578376 -0.29714942 -0.10388783 -0.03728493 -0.027547713 -0.89511526
-0.30215025 -0.63871944 0.12490767 -0.07096572 -0.017133396 0.03121762 0.11005633 0.091217786
0.09121064 0.06847668 -0.020141311 -0.09028939 0.2119104 -0.38343772 -0.051666513 0.096128754
0.056233272 -0.0986218 -0.3404074 -0.018285988 0.45133212 -0.016185194 -0.41779354 0.090796135
-0.105526224 -0.07383591 -1.002224 0.04234118 0.13237645 -0.061429944 -0.13310112 -0.13438268
0.028240211 -0.46510756 -0.082337834 0.014997058 -0.3260665 0.08448461 0.07650315 -0.1571056
0.007687124 -0.23435737 -0.054006923 -0.51339835 0.1526345 -0.10607692 -0.1631497 -0.75577134
0.0006065384 -0.122905746 -0.23222134 -0.07489077 0.0029464588 0.03450915 0.10104339 -0.07385985
-0.24771845 0.047208197 0.10655709 -0.4314311 0.03791507 -0.021551661 0.095048785 0.35367015
0.15946895 0.09053278 0.024496065 -0.07268102 0.041463874 -0.06436151 -0.14995563 -0.73813903
-0.08483361 -0.08227154 -0.031445898 -0.13376844 0.009182812 0.107036345 -0.12068102 -0.0150389485
0.15971848 -0.013424689 -0.009013888 0.13776228 0.0059567303 -0.32801065 -0.66559714 -0.26862162
-0.041222654 0.105877884 0.10019827 -0.11161362 -0.48329198 -0.060463406 0.17793621 -0.27511013
-0.34417954 -0.0832396 0.109060094 0.0851839 -0.0021783458 -0.017858481 -0.33435392 -0.050405573
-0.08409951 -0.62846136 0.44599342 -0.18804513 0.05009913 -0.08677883 -0.10200807 -1.2758398
-0.34811813 0.0436009 -0.19729471 0.15013653 0.137201 -0.3956392 -0.32930076 -0.33161974
-0.12775649 -0.00067195256 -0.050409306 -0.053565692 -0.03306884 -0.7708769 0.17735277 -0.5496401
-0.052014045 -0.4888745 0.055568244 -0.62488955 -0.03347811 -0.09518909 0.14342013 -0.07037565
0.19984348 0.025298087 -0.006497114 -0.028912436 -0.03413857 -0.12453438 0.3013847 -0.4096406
-0.30063882 -0.021563249 -0.23556 -0.11725568 0.274198 -0.28525436 0.077109165 0.237807
0.029479407 -0.46495375 0.0155551825 0.38521865 -0.058281854 -0.25895178 -0.038668618 -0.19563045
-0.09984527 0.017192304 0.33526433 0.072411135 0.13689415 -0.22409466 0.09768452 -0.014263615
-0.2743409 -0.5661028 -0.10991164 -0.084479205 -0.1949007 0.16496806 0.7285197 0.10373106
0.07277186 -0.64530134 -0.13019866 -0.35058808 -0.2681952 -0.128234 0.055767387 -0.037948277
-0.4632453 -0.12004735 -0.61379814 -0.5845661 -0.02538085 -0.07003918 -0.41282922 -0.04673061
-0.0018390164 -0.027347377 -0.44975093 -0.07895419 0.06160487 -0.14736693 0.016673377 0.090216205
-0.021005727 -1.0784702 -0.04880851 -0.37414184 0.23070745 -0.61746484 -0.3736964 -0.11721259
-0.17112778 -0.08578507 -0.65110874 0.18000162 0.21628696 -0.52101356 -0.5076433 -0.6366773
-0.7285151 -0.25486127 -0.031046066 -0.2535852 -0.08538742 -0.122575104 -0.28294194 -0.059564877
-0.19696775 -0.01729 -0.85269475 0.12367253 -0.25648293 -0.023910923 0.026056245 0.108107015
00000000: 058b c5be 2f7d be3e d30b 75bd f0c3 9dbc
00000010: e814 123e 615a 3d3c 7694 a43e d166 28bf
00000020: a19c 80bd cd60 733e 01ae 3d3e d7aa 973e
00000030: 5ccd 1b3c aa66 9cbf d6b5 013e 0d6f 6cbc
00000040: 1558 66be 84e1 1bbe a6b8 f8be f823 98be
00000050: 25c3 d4bd 15b8 18bd beab e1bc 4626 65bf
00000060: 70b3 9abe 1e83 23bf 98cf ff3d 7a56 91bd
00000070: 565b 8cbc 18bc ff3c 3765 e13d 64d0 ba3d
00000080: a5cc ba3d 803d 8c3d 64ff a4bc a5e9 b8bd
00000090: 0aff 583e f351 c4be 44a0 53bd 27df c43d
000000a0: dc54 663d 3afa c9bd e149 aebe 7fcc 95bc
000000b0: 0115 e73e d096 84bc 09e9 d5be 53f3 b93d
000000c0: 221e d8bd 4837 97bd e048 80bf f26d 2d3d
000000d0: b18d 073e f79d 7bbd a94b 08be 9d9b 09be
000000e0: 0458 e73c 9422 eebe bda0 a8bd 38b6 753c
000000f0: 30f2 a6be 4406 ad3d afad 9c3d 4ae0 20be
00000100: 45e4 fb3b 61fb 6fbe 5d36 5dbd 136e 03bf
00000110: 384c 1c3e db3e d9bd b710 27be 3b7a 41bf
00000120: 1a00 1f3a 02b6 fbbd 6ecb 6dbe 5560 99bd
00000130: 6019 413b 7759 0d3d d6ef ce3d d543 97bd
00000140: e8a9 7dbe 625d 413d 9b3a da3d 8ae4 dcbe
00000150: d54c 1b3d 1c8d b0bc f0a8 c23d 4114 b53e
00000160: d44b 233e 4069 b93d f9ab c83c c9d9 94bd
00000170: 06d6 293d f8cf 83bd f88d 19be aef6 3cbf
00000180: 3ebd adbd fb7d a8bd 6acd 00bd 98fa 08be
00000190: 8173 163c df35 db3d 9c27 f7bd ec65 76bc
000001a0: 3e8d 233e 3af3 5bbc fdae 13bc 8e11 0d3e
000001b0: ad30 c33b 03f1 a7be 9364 2abf c688 89be
000001c0: 16d9 28bd 81d6 d83d c034 cd3d ae95 e4bd
000001d0: 0c72 f7be 7aa8 77bd e934 363e 3cdb 8cbe
000001e0: 4d38 b0be 8679 aabd e65a df3d e674 ae3d
000001f0: 94c2 0ebb f34b 92bc 7030 abbe 1376 4ebd
00000200: 5d3c acbd d8e2 20bf 4059 e43e e78e 40be
00000210: bf34 4d3d 19b9 b1bd 9be9 d0bd b84e a3bf
00000220: 8a3c b2be db96 323d a007 4abe 64bd 193e
00000230: 6b7e 0c3e 3991 cabe 1c9a a8be 10ca a9be
00000240: 99d2 02be f925 30ba fd79 4ebd b367 5bbd
00000250: 3173 07bd 3058 45bf f79b 353e 37b5 0cbf
00000260: ae0c 55bd c24d fabe 879b 633d c3f8 1fbf
00000270: 5820 09bd 7ff2 c2bd badc 123e 1c21 90bd
00000280: c5a3 4c3e ef3d cf3c bee5 d4bb c6d9 ecbc
00000290: e3d4 0bbd e20b ffbd 184f 9a3e 6abc d1be
000002a0: 55ed 99be 69a5 b0bc a436 71be bf23 f0bd
000002b0: ae63 8c3e dc0c 92be 69eb 9d3d ae83 733e
000002c0: cc7e f13c 6b0e eebe 2adb 7e3c 613b c53e
000002d0: f4b8 6ebd 5495 84be fc62 1ebd 5953 48be
000002e0: ad7b ccbd e0d6 8c3c c4a7 ab3e 4a4c 943d
000002f0: fb2d 0c3e 1279 65be d20e c83d f0b1 69bc
00000300: 6976 8cbe 1dec 10bf 5b19 e1bd 6f03 adbd
00000310: 0d94 47be 63ed 283e 4480 3a3f f370 d43d
00000320: 6a09 953d 7832 25bf cc52 05be 4880 b3be
00000330: e250 89be c64f 03be 586c 643d a76f 1bbd
00000340: 7d2e edbe 63db f5bd e021 1dbf 20a6 15bf
00000350: 80eb cfbc b470 8fbd 5a5e d3be 9968 3fbd
00000360: 270b f1ba 9b07 e0bc c145 e6be bcb2 a1bd
00000370: 6355 7c3d 5be7 16be 9b96 883c 46c3 b83d
00000380: 3414 acbc 500b 8abf 6feb 47bd 858f bfbe
00000390: 933e 6c3e 2d12 1ebf 2255 bfbe 280d f0bd
000003a0: 1f3c 2fbe 15b0 afbd 10af 26bf 5852 383e
000003b0: 547a 5d3e 2561 05bf e9f4 01bf 49fd 22bf
000003c0: f77f 3abf 2d7d 82be 5254 febc ebd5 81be
000003d0: 9adf aebd a808 fbbd c4dd 90be 4dfa 73bd
000003e0: eab1 49be c2a3 8dbc 344a 5abf 0648 fd3d
000003f0: bb51 83be d7e0 c3bc e873 d53c 3667 dd3d

fc2.bias f4 [150]
-0.023189439 -0.23006554 0.30579215 -0.15047018 0.33952668 -0.15637311 -0.10759672 0.36206618
0.29525295 -1.0495346 -0.06539625 -0.36338535 -0.1782737 -0.059392635 -0.13135363 -0.10616708
-0.1592688 0.1387078 -0.057313044 -0.8198995 -0.1997808 -0.16509737 -0.18123126 -0.115038656
-0.30036402 -0.13761422 -0.060003188 -0.16578296 -0.08478573 0.0238417 -0.16135512 -0.19519942
-0.13754621 -0.15601848 -0.85183513 -0.1807055 0.02159717 -0.14284089 -0.23983799 -0.19072422
-0.2743026 0.06422682 -0.066181846 -0.19021931 -0.15368602 0.10674841 -0.17256212 -0.026787631
-0.1149375 -0.09369482 -0.122546464 -0.13686475 0.25836283 -0.19570905 -0.14006114 -0.10998125
-0.17674756 0.42907932 -0.075112455 -0.14482513 -0.17745246 -0.11342426 -0.100127496 -0.08887265
-0.13521437 -0.005372841 -0.05237871 -0.12565081 -0.1999607 -0.08884591 0.117141575 0.96665287
-0.15734956 -0.17897058 -0.11463566 -0.08242996 -0.110865444 -0.16844139 -0.30235478 -0.14220382
-0.21099246 -0.15883921 -0.56068826 -0.078147955 -0.061249852 -0.0979141 -0.087 -0.105546884
-0.14995186 -0.06030317 -0.082862936 -0.07972215 -0.06323756 -0.14573911 -0.15690215 -0.32634822
0.17221011 -0.19297622 -0.22466819 0.6736731 -0.20295045 -0.115492344 -0.12672134 -0.07010816
-0.18215936 0.34972605 -0.41461408 -0.27125433 -0.15632358 -0.08939167 -0.100470774 -0.41577855
-0.17972173 -0.43079832 0.028620362 0.13204037 -0.10952681 -0.08553398 -0.13451281 -0.1376292
0.004940032 0.32286203 0.68754107 -0.19528043 -0.11855067 -0.12579392 -0.25997213 -0.07504609
-0.15509574 -0.15559301 -0.18542184 0.2149773 -0.09184649 -0.11698614 -0.17125249 -0.111038804
-0.09424264 -0.19926733 -0.042785995 -0.26544875 -0.7456093 -0.15547392 -0.107486874 -0.15572165
-0.10926169 0.072377935 -0.19822879 -0.1699587 0.6594688 -0.2242264
00000000: c7f7 bdbc 4d96 6bbe ca90 9c3e db14 1abe
00000010: 71d6 ad3e 4620 20be ab5b dcbd bd60 b93e
00000020: 652b 973e 2657 86bf 78ee 85bd a50d babe
00000030: 618d 36be b145 73bd 9181 06be 206e d9bd
00000040: 5c17 23be 6b09 0e3e 15c1 6abd efe4 51bf
00000050: 5793 4cbe 490f 29be b094 39be 6399 ebbd
00000060: 50c9 99be beea 0cbe e7c5 75bd 02c3 29be
00000070: 24a4 adbd ab4f c33c 473a 25be 5be2 47be
00000080: ead8 0cbe 4fc3 1fbe de11 5abf dd0a 39be
00000090: 8cec b03c e244 12be 1798 75be 364d 43be
000000a0: 6471 8cbe 5a89 833d 598a 87bd dac8 42be
000000b0: de5f 1dbe e99e da3d 20b4 30be bc71 dbbc
000000c0: 5a64 ebbd 12e3 bfbd a4f9 fabd 4626 0cbe
000000d0: 2248 843e f467 48be 306c 0fbe d93d e1bd
000000e0: 50fd 34be 49b0 db3e 8fd4 99bd 0a4d 14be
000000f0: 19b6 35be fa4a e8bd a50f cdbd dd02 b6bd
00000100: a375 0abe a80e b0bb 0f8b 56bd 9baa 00be
00000110: 7fc2 4cbe d8f4 b5bd ece7 ef3d 9076 773f
00000120: 3e20 21be 1044 37be 1ac6 eabd 0ad1 a8bd
00000130: 6c0d e3bd e67b 2cbe 3fce 9abe e19d 11be
00000140: 680e 58be bfa6 22be 4489 0fbf 090c a0bd
00000150: 20e1 7abd 3087 c8bd 0e2d b2bd f728 d8bd
00000160: fb8c 19be 7500 77bd 0bb4 a9bd 5e45 a3bd
00000170: b282 81bd a23c 15be f5aa 20be 1d17 a7be
00000180: d957 303e 8f9b 45be 6b0f 66be d775 2c3f
00000190: 3ed2 4fbe 4087 ecbd 3dc3 01be de94 8fbd
000001a0: fc87 3abe 4b0f b33e 4c48 d4be d9e1 8abe
000001b0: 4a13 20be fb12 b7bd 9fc3 cdbd ede0 d4be
000001c0: f908 38be 9991 dcbe 4075 ea3c 9735 073e
000001d0: 984f e0bd 702c afbd babd 09be abee 0cbe
000001e0: fedf a13b 2c4e a53e b102 303f 98f7 47be
000001f0: b2ca f2bd 1fd0 00be 111b 85be c4b1 99bd
00000200: 6bd1 1ebe c653 1fbe 39df 3dbe 0223 5c3e
00000210: 031a bcbd 6e96 efbd d05c 2fbe 5068 e3bd
00000220: 4902 c1bd bc0c 4cbe 5e40 2fbd e6e8 87be
00000230: 40e0 3ebf 8e34 1fbe 1422 dcbd 7f75 1fbe
00000240: 98c4 dfbd e23a 943d 7dfc 4abe a709 2ebe
00000250: f3d2 283f 9b9b 65be

fc3.weight f4 [1, 150]
0.011699708 -0.015012431 -0.01718034 -0.0074028126 -0.007847188 -0.008279473 0.0060551427 -0.03138212
-0.01595016 -0.01573317 -0.01293988 -0.02668449 -0.0049167154 0.019143695 0.0065900255 0.007711616
0.009903993 -0.0151942205 -0.03230258 -0.018574918 -0.013124998 -0.005510721 0.0041674348 -0.007230837
0.010730718 -0.023013845 -0.0176557 -0.013195102 -0.0026725659 -0.030465472 0.0008964178 0.023353959
-0.007767467 -0.029633133 -0.009155736 0.022382684 0.012926186 0.0081301965 0.0056455606 0.0076915273
-0.014781057 0.0062689087 0.010159221 0.02683279 -0.020737039 -0.02224343 -0.0117284125 0.01243579
-0.01820499 0.010620503 0.0066007255 -0.00049878244 0.011599204 0.04447725 0.011335092 0.051596515
0.013953054 0.00865193 -0.026015988 0.0016041287 -0.020186014 0.009869677 -0.02648616 -0.008610929
0.0138966115 -0.009656087 -0.025389064 -0.0053590983 -0.026539665 0.022603739 -0.013093899 0.012841398
-0.033539224 0.0013782984 0.009843428 0.0012374157 -0.0075788456 0.008157198 0.008317772 -0.010255579
-0.014162779 -0.005918783 -0.0092764525 0.017443022 -0.0026623532 0.021091966 0.00059650384 0.013942119
-0.0033082052 -0.016742967 -0.0051788185 0.002688342 0.0019481662 0.027768707 -0.021384744 0.021853125
0.013037971 0.009986883 0.0077837673 0.012807208 0.0205277 -0.04121607 0.017065486 -0.021868834
-0.014656135 -0.008739895 -0.0132030705 0.009229863 -0.010891541 0.00087425974 0.006389179 -0.009974394
0.010980458 -0.009508859 -0.020479556 0.014609409 0.009803345 -0.037043225 -0.031628124 0.0035836995
-0.020373007 0.00943916 0.00645129 0.0082724 0.016075423 0.003997313 -0.011643986 -0.007411668
0.0007607364 0.025302552 -0.050573867 0.008156594 5.6644174e-05 -0.0050898073 0.011520569 -0.008438726
-0.014195742 0.019332439 -0.060342923 -0.025129646 -0.008072979 -0.005095879 0.00044476026 0.0028840278
0.012577782 -0.018325198 0.015833337 -0.0048953313 0.008030464 0.0051651676
00000000: 22b0 3f3c b3f6 75bc c9bd 8cbc 4b93 f2bb
00000010: 7e91 00bc a0a6 07bc 386a c63b 8a8a 00bd
00000020: e9a9 82bc d9e2 80bc ca01 54bc 6e99 dabc
00000030: 661c a1bb 3dd3 9c3c 24f1 d73b b9b1 fc3b
00000040: 5c44 223c 2ef1 78bc b64f 04bd 6d2a 98bc
00000050: 3b0a 57bc 4793 b4bb fa8e 883b a8f0 ecbb
00000060: e5cf 2f3c 8887 bcbc b0a2 90bc 4530 58bc
00000070: 3726 2fbb ba92 f9bc 95fd 6a3a cd50 bf3c
00000080: 3c86 febb 2fc1 f2bc f101 16bc e45b b73c
00000090: 5bc8 533c 8434 053c 65fe b83b 3509 fc3b
000000a0: 3f2c 72bc 6b6b cd3b dc72 263c 70d0 db3c
000000b0: b9e0 a9bc db37 b6bc 8728 40bc 7cbf 4b3c
000000c0: a222 95bc 9e01 2e3c e64a d83b b9c0 02ba
000000d0: 960a 3e3c c72d 363d d2b6 393c de56 533d
000000e0: 5a9b 643c d3c0 0d3c 7b1f d5bc a141 d23a
000000f0: 245d a5bc 6db4 213c 81f9 d8bc db14 0dbc
00000100: 9dae 633c 9034 1ebc bafc cfbc 609b afbb
00000110: b669 d9bc 7a2b b93c cb87 56bc ba64 523c
00000120: 6d60 09bd 05a8 b43a 5446 213c c830 a23a
00000130: f757 f8bb c5a5 053c 4447 083c 0407 28bc
00000140: 000b 68bc 5af2 c1bb 43fc 17bc abe4 8e3c
00000150: e07a 2ebb 0fc9 ac3c b25e 1c3a 7c6d 643c
00000160: 79ce 58bb 8c28 89bc 14b3 a9bb e52e 303b
00000170: 9c59 ff3a 337b e33c 0f2f afbc 5305 b33c
00000180: 379d 553c 06a0 233c f90e ff3b 53d5 513c
00000190: b529 a83c 2fd2 28bd ebcc 8b3c 4526 b3bc
000001a0: 4920 70bc c731 0fbc b151 58bc da38 173c
000001b0: 6f72 32bc 942e 653a 515c d13b a46b 23bc
000001c0: 61e7 333c 0ccb 1bbc bec4 a7bc 4d5c 6f3c
000001d0: 369e 203c a3ba 17bd 7e8c 01bd 80dc 6a3b
000001e0: 4be5 a6bc b5a6 1a3c 5865 d33b f688 073c
000001f0: 9bb0 833c e4fb 823b 6bc6 3ebc 94dd f2bb
00000200: 286c 473a 4c47 cf3c 8b26 4fbd 3ca3 053c
00000210: 3895 6d38 66c8 a6bb c5c0 3c3c 9542 0abc
00000220: 4295 68bc 105f 9e3c 242a 77bd b0dc cdbc
00000230: 8744 04bc 55fb a6bb b62e e939 f501 3d3b
00000240: 0b13 4e3c ba1e 96bc eab4 813c 0469 a0bb
00000250: 3592 033c 9140 a93b
