agent2_checkpoint_actor.pth (torch_old, 142733 bytes, 6 tensors)

fc1.weight f4 [200, 24]
0.019178903 0.0030037907 -0.12369244 0.05340394 -0.017977254 0.1990177 -0.064777575 -0.04004701
0.06212017 -0.004514048 -0.0038184377 0.077865325 -0.041484185 0.07278059 0.010513726 0.10250097
-0.03685291 -0.043153107 -0.122816086 0.14579949 -0.02747411 -0.06661846 -0.031752247 0.069101185
-0.045208056 -0.038440302 -0.06147767 0.049073298 -0.05711274 -0.011178008 0.0017792449 0.028552955
-0.003920496 -0.061949193 0.025545713 -0.04098399 0.05603893 0.12624915 0.0202527 -0.09413167
-0.021721484 0.0528559 0.02647226 0.023855738 0.009050757 0.2747168 -0.003563538 0.0034465129
0.06106407 0.07756961 0.028509032 -0.12955408 0.016313286 -0.102441505 0.041043192 -0.1260731
-0.055141717 0.08660276 -0.10098845 -0.0975713 0.08423189 0.043136857 -0.11502227 -0.18728559
0.07081506 0.041453637 -0.0018618677 -0.11316328 0.028882246 -0.08272318 0.11211876 -0.07832399
-0.066747494 -0.014100755 0.050048184 -0.02049111 -0.18833774 0.061194252 0.043704268 0.10527338
-0.0769228 0.072490305 -0.0031275102 0.07511732 -0.1047992 -0.0882914 -0.027348034 0.024065446
-0.054257326 -0.014265795 0.02673505 0.047301237 -0.100197755 -0.11681653 -0.042903133 -0.023006588
0.07469214 -0.12217673 -0.037596498 -0.032547254 0.104317665 0.12043786 0.043503005 0.06304094
0.1363475 -0.06576012 -0.054249033 0.03594208 0.17190713 -0.06729317 -0.12087231 0.008168762
0.019679653 -0.044472802 -0.015752658 -0.111758076 0.18537489 -0.2928384 0.03637928 -0.015533679
-0.046602454 -0.022081802 -0.031061383 0.028085714 0.12758708 -0.05718116 -0.058682974 -0.06333487
0.066022865 0.079692475 0.009664569 -0.20347007 0.15398031 0.10682903 -0.0050506475 -0.08668731
-0.025928926 -0.020222181 0.057422303 -0.14473997 -0.00018483322 0.33903876 -0.04310105 -0.15268885
0.01566794 -0.10103393 0.07177505 0.04654844 0.0043477924 -0.15683877 -0.04111443 0.070974894
-0.03335847 -0.1420296 0.003985436 0.039787762 0.04117864 0.09740733 -0.073860094 0.07460394
-0.07690569 0.00020555579 -0.060485628 0.13730282 0.05691603 0.15840788 6.741849e-05 0.070701905
0.14340214 0.008478629 -0.028545061 -0.1416353 -0.030606667 -0.057576567 -0.13599613 -0.09221504
-0.00088843366 -0.028819352 -0.014177748 -0.14208707 -0.04125189 -0.066529736 0.02114488 -0.044615142
0.0037127654 -0.067765184 0.0135693755 0.022252563 -0.01932619 -0.14063515 -0.11164206 -0.08308408
-0.018473929 -0.033560332 0.0067566456 0.04200566 0.2527244 -0.03500123 0.015455205 -0.05347032
-0.111571245 -0.03327809 -0.004182799 -0.044533484 0.0830924 -0.041751374 0.046054676 0.009351677
-0.049793623 -0.013820157 -0.022075024 0.0016365746 0.020293593 -0.085195914 0.03636746 -0.07431087
-0.06983757 -0.028258817 -0.014430807 0.031863917 0.04869017 -0.022636246 0.027184004 0.01183304
-0.006045162 -0.01614901 0.056278586 -0.033127327 0.1392894 0.1705697 -0.059400022 -0.03182643
0.012158008 -0.0114928745 0.013435347 -0.06972093 0.23235719 0.2590587 -0.050986275 -0.12589212
0.029965507 0.07881032 -0.09331089 -0.036735628 -0.13411674 -0.04627401 -0.08889118 -0.0074758474
-0.06901512 -0.042044047 0.078345284 0.0053936015 -0.054580126 0.008946346 -0.04199964 -0.08813968
00000000: 131d 9d3c 3fdb 443b 7652 fdbd 17be 5a3d
00000010: 0945 93bc 4ccb 4b3e 1baa 84bd 5508 24bd
00000020: b871 7e3d 94ea 93bb c13e 7abb db77 9f3d
00000030: 52eb 29bd fd0d 953d c341 2c3c 07ec d13d
00000040: 14f3 16bd 50c1 30bd 0087 fbbd 764c 153e
00000050: 6211 e1bc 426f 88bd a50e 02bd ec84 8d3d
00000060: 152c 39bd 9473 1dbd 02d0 7bbd 1501 493d
00000070: 0cef 69bd f723 37bc 8d35 e93a e3e7 e93c
00000080: 8177 80bb 70be 7dbd 3e45 d13c d4de 27bd
00000090: 1489 653d 7547 013e fee8 a53c 1bc8 c0bd
000000a0: 41f1 b1bc 6e7f 583d 5adc d83c 1c6d c33c
000000b0: a049 143c aea7 8c3e 3f8a 69bb e4de 613b
000000c0: 511e 7a3d d1dc 9e3d c68b e93c d3a9 04be
000000d0: 71a3 853c dacc d1bd e81c 283d 4f19 01be
000000e0: 48dc 61bd ca5c b13d 08d3 cebd 76d3 c7bd
000000f0: c581 ac3d 46b0 303d cc90 ebbd cbc7 3fbe
00000100: 7c07 913d 4acb 293d ea09 f4ba 26c2 e7bd
00000110: 769a ec3c c56a a9bd 859e e53d 5468 a0bd
00000120: e9b2 88bd da06 67bc 53ff 4c3d f9dc a7bc
00000130: 9cdb 40be d3a6 7a3d 3f03 333d 9299 d73d
00000140: b389 9dbd cc75 943d eaf6 4cbb 1cd7 993d
00000150: f7a0 d6bd 1fd2 b4bd fc08 e0bc e624 c53c
00000160: ee3c 5ebd 15bb 69bc 7703 db3c f1be 413d
00000170: 7b34 cdbd 813d efbd 32bb 2fbd 5078 bcbc
00000180: 31f8 983d cb37 fabd c9fe 19bd 4550 05bd
00000190: 80a4 d53d 20a8 f63d 3530 323d 9c1b 813d
000001a0: ae9e 0b3e 3ead 86bd 3c34 5ebd 0138 133d
000001b0: 6c08 303e 00d1 89bd e78b f7bd 45d6 053c
000001c0: 3937 a13c 1d29 36bd b80b 81bc 6be1 e4bd
000001d0: ead2 3d3e eaee 95be 7102 153d f980 7ebc
000001e0: 37e2 3ebd e5e4 b4bc 7174 febc 0314 e63c
000001f0: 30a6 023e cb36 6abd 8f5d 70bd b6b5 81bd
00000200: ff36 873d cf35 a33d 2458 1e3c 755a 50be
00000210: 04ad 1d3e 2ec9 da3d e77f a5bb 1e89 b1bd
00000220: e668 d4bc fda8 a5bc a633 6b3d b736 14be
00000230: cacf 41b9 7d96 ad3e ba8a 30bd 775a 1cbe
00000240: 0d5a 803c e1ea cebd ccfe 923d 94a9 3e3d
00000250: ed77 8e3b 589a 20be 9b67 28bd 495b 913d
00000260: e4a2 08bd 3570 11be 4398 823b 7ef8 223d
00000270: efaa 283d 7f7d c73d f643 97bd f3c9 983d
00000280: bb80 9dbd 768a 5739 c7bf 77bd 1c99 0c3e
00000290: c820 693d ad35 223e 0763 8d38 29cc 903d
000002a0: 03d8 123e f3e9 0a3c 55d7 e9bc d808 11be
000002b0: d5ba fabc 68d5 6bbd 9242 0bbe 3ddb bcbd
000002c0: c6e5 68ba 9016 ecbc c949 68bc 467f 11be
000002d0: bef7 28bd be40 88bd 0738 ad3c 5ebe 36bd
000002e0: de51 733b 79c8 8abd 1652 5e3c 024b b63c
000002f0: f551 9ebc a902 10be 98a4 e4bd fc27 aabd
00000300: a356 97bc 8f76 09bd da66 dd3b 200e 2c3d
00000310: 1865 813e 735d 0fbd d437 7d3c b203 5bbd
00000320: 777f e4bd 9b4e 08bd dc0f 89bb be68 36bd
00000330: 592c aa3d 7d03 2bbd d4a3 3c3d c737 193c
00000340: 66f4 4bbd f16d 62bc aed6 b4bc 5582 d63a
00000350: c03e a63c 327b aebd 0cf6 143d 4c30 98bd
00000360: 0007 8fbd 097f e7bc 316f 6cbc bd83 023d
00000370: 586f 473d a66f b9bc fdb0 de3c 5edf 413c
00000380: 7f16 c6bb ee4a 84bc 6084 663d 85b0 07bd
00000390: e1a1 0e3e d3a9 2e3e 704d 73bd 6e5c 02bd
000003a0: 6232 473c 9c4c 3cbc ee1f 5c3c d9c9 8ebd
000003b0: 0bef 6d3e 58a3 843e fcd6 50bd dde9 00be
000003c0: 397a f53c 4e67 a13d c819 bfbd 1978 16bd
000003d0: e655 09be d189 3dbd 940c b6bd f4f7 f4bb
000003e0: cd57 8dbd 6136 2cbd 7e73 a03d cfbc b03b
000003f0: 698f 5fbd b293 123c d107 2cbd 9482 b4bd

fc1.bias f4 [200]
0.20707865 0.00837843 0.11071289 0.027202295 -0.22915807 -0.027173372 0.017452737 -0.08109558
0.23536439 -0.11465774 -0.09741185 -0.06542522 0.21286106 -0.09157837 0.105852224 0.046460018
-0.059987854 0.08277582 0.078368545 -0.09680413 -0.08288337 0.18925197 0.12617122 -0.14171761
-0.03490085 0.12903386 0.040266797 -0.047922216 -0.13064723 -0.13913904 -0.0065815635 0.07550174
-0.027877428 -0.1529957 -0.03882671 0.20065778 -0.15147923 -0.09093081 0.11220844 0.25373304
-0.16819568 -0.1191544 -0.029740894 0.2783131 -0.1305793 0.04249241 0.23487416 -0.08853446
-0.07506312 -0.112950295 0.019369736 0.22124736 0.11308637 0.20983614 0.03465331 -0.08968133
-0.03937703 0.078292504 -0.048319552 -0.16365083 -0.057638306 0.06597685 0.15205458 -0.045345053
-0.18043013 -0.13582996 -0.24454848 0.0621658 0.13395922 0.08150924 -0.0010324187 0.20085455
0.17662086 0.1073764 0.09332702 0.05518895 0.11866137 -0.2271231 -0.09262071 0.085275635
0.06461932 -0.20428753 -0.18037541 -0.09262958 0.0868166 0.1335534 -0.110981464 0.061387025
-0.045078855 0.094651036 -0.14046384 -0.15187062 -0.14203422 0.12402429 -0.0659229 0.12841529
0.07000862 0.021615244 -0.0734694 -0.08620317 0.08794065 -0.047500934 0.09987738 0.035779107
-0.072626464 -0.1711261 -0.1302117 0.040453058 0.110179156 0.0041717226 -0.1583584 -0.22785076
-0.06379008 -0.17820889 -0.1966873 -0.18902302 -0.1160365 -0.19475003 0.057248216 0.06443242
0.10780591 -0.17672615 -0.008531637 0.005874104 0.05575132 -0.016483108 0.098313846 -0.20324121
0.09231154 0.19180855 0.047582123 -0.13488068 0.055621333 0.005039546 0.13977347 -0.17043033
0.02384402 0.054310955 -0.049427904 -0.063383944 -0.030557182 -0.14186545 0.14745365 0.21616973
-0.011827024 0.18308328 0.16531697 -0.144684 -0.0733035 -0.1948977 0.06507564 0.04034168
-0.044328712 0.11990817 -0.07880974 -0.113067485 -0.08255871 -0.10531912 0.22407262 -0.038911104
-0.06594546 -0.011650778 -0.17738244 -0.14724685 0.16057242 -0.06717482 -0.13945064 0.032056753
0.013447695 0.100712694 0.07193292 -0.15722647 0.17470159 -0.18795459 -0.01895577 -0.033875402
-0.010755161 0.21512276 -0.19639385 0.08922479 0.099072926 0.10418975 -0.11236479 0.016659819
0.17943189 -0.2282556 0.08266786 -0.10948899 -0.13818052 -0.14677441 0.10290833 -0.12794903
0.1054552 0.08882377 -0.0063096215 -0.06441035 -0.20282978 -0.14769891 -0.04898214 -0.1631148
00000000: 6d0c 543e af45 093c 71bd e23d 59d7 de3c
00000010: 6aa8 6abe b19a debc 0bf9 8e3c 7015 a6bd
00000020: 5d03 713e add1 eabd dd7f c7bd a8fd 85bd
00000030: 40f8 593e 718d bbbd 0dc9 d83d dc4c 3e3d
00000040: d3b5 75bd 5e86 a93d b07f a03d 3e41 c6bd
00000050: c2be a9bd 45cb 413e 0733 013e 6c1e 11be
00000060: 32f4 0ebd 7421 043e ccee 243d 164a 44bd
00000070: 63c8 05be 777a 0ebe 28aa d7bb a8a0 9a3d
00000080: 345f e4bc e8aa 1cbe c208 1fbd 3c79 4d3e
00000090: 5f1d 1bbe ef39 babd 8acd e53d 4ce9 813e
000000a0: 7d3b 2cbe 3907 f4bd 2da3 f3bc 0e7f 8e3e
000000b0: 94b6 05be 850c 2e3d da82 703e 8e51 b5bd
000000c0: b1ba 99bd 7c52 e7bd 48ad 9e3c ab8e 623e
000000d0: d499 e73d 49df 563e a1f0 0d3d d8aa b7bd
000000e0: cf49 21bd d257 a03d b9ea 45bd 1594 27be
000000f0: 2516 6cbd df1e 873d 32b4 1b3e bcbb 39bd
00000100: adc2 38be 0217 0bbe eb6a 7abe 91a1 7e3d
00000110: 9b2c 093e 51ee a63d 3952 87ba d1ac 4d3e
00000120: 19dc 343e 28e8 db3d 3d22 bf3d cf0d 623d
00000130: bb04 f33d f592 68be edaf bdbd fea4 ae3d
00000140: 2257 843d c030 51be 55b4 38be 94b4 bdbd
00000150: e7cc b13d 39c2 083e 404a e3bd f670 7b3d
00000160: 9ba4 38bd 67d8 c13d c1d5 0fbe f983 1bbe
00000170: 6b71 11be 7200 fe3d 9602 87bd 4c7f 033e
00000180: ae60 8f3d 7412 b13c 2077 96bd 4a8b b0bd
00000190: 3a1a b43d 5790 42bd 838c cc3d 1d8d 123d
000001a0: 2fbd 94bd ae3b 2fbe 3756 05be 1bb2 253d
000001b0: 9ca5 e13d f2b2 883b b428 22be b651 69be
000001c0: 60a4 82bd 647c 36be 6568 49be 408f 41be
000001d0: 8ba4 edbd 8d6c 47be 1b7d 6a3d 25f5 833d
000001e0: 58c9 dc3d b3f7 34be 47c8 0bbc 8e7b c03b
000001f0: 7f5b 643d 9507 87bc c558 c93d 771e 50be
00000200: d50d bd3d 7669 443e 79e5 423d 291e 0abe
00000210: 32d3 633d c722 a53b c720 0f3e 4a85 2ebe
00000220: 8954 c33c 2a75 5e3d ea74 4abd 71cf 81bd
00000230: 0e53 fabc 2d45 11be 17fe 163e 995b 5d3e
00000240: 22c6 41bc 2f7a 3b3e da48 293e 0b28 14be
00000250: 2520 96bd 4393 47be 6146 853d 513d 253d
00000260: 0692 35bd 6a92 f53d 0067 a1bd ed8f e7bd
00000270: 8a14 a9bd 8db1 d7bd 4b73 653e 4061 1fbd
00000280: 6a0e 87bd e8e2 3ebc bea3 35be e1c7 16be
00000290: 196d 243e f492 89bd 26cc 0ebe f14d 033d
000002a0: b953 5c3c 7542 ce3d 9151 933d faff 20be
000002b0: f9e4 323e 2b77 40be 2249 9bbc efc0 0abd
000002c0: 6a36 30bc 2449 5c3e 781b 49be 7dbb b63d
000002d0: bfe6 ca3d 7061 d53d 831f e6bd 2c7a 883c
000002e0: febc 373e d6bb 69be c44d a93d c33b e0bd
000002f0: 327f 0dbe 084c 16be 9ac1 d23d 1205 03be
00000300: e5f8 d73d 3de9 b53d f1c0 cebb 93e9 83bd
00000310: 9cb2 4fbe 623e 17be 7fa1 48bd 9107 27be

fc2.weight f4 [150, 200]
0.12713018 0.06714168 0.06285089 0.018792644 0.0034233578 -0.041352835 -0.11148951 -0.045904428
-0.11126005 0.06932043 0.009722223 0.028712433 0.108317114 0.010440122 0.049482383 -0.057617694
-0.014741583 0.10221185 0.11549863 0.019688023 0.072307184 -0.0031372092 0.070819564 0.1415794
0.13701375 0.10291831 0.20635246 0.060792714 -0.1181759 0.05047258 0.025160171 -0.04086756
0.16919291 -0.08842256 0.03391021 0.028721701 0.010947534 -0.07858501 0.09540559 0.062329423
-0.0069864662 -0.007343875 0.0148528395 0.06540779 0.08491699 0.04724576 0.034330547 0.07743237
-0.09208185 -0.006845514 -0.016480543 0.17431355 -0.08722504 0.1171259 0.06342096 0.03405323
0.005257484 -0.058303077 0.10145957 0.06737445 0.008820442 0.003966431 -0.07041134 -0.038755424
0.12653442 0.040329695 0.092544824 0.20774066 -0.069833264 0.042314563 -0.029176531 -0.051517133
0.018448709 -0.0020545172 0.12121276 -0.0533906 -0.053628728 0.06662089 0.0019897618 0.15242416
0.040851682 -0.027452454 0.11950297 0.037695736 0.025442904 -0.056327544 0.13046966 0.06320168
0.006587452 0.08397741 -0.030335417 8.6766624e-05 0.02445328 -0.048981767 -0.009161834 0.11429786
-0.06995691 0.15939225 0.08344798 0.08168788 0.028858922 0.111060165 0.031242255 0.17795071
0.15661101 0.038300518 0.11639424 0.015108824 -0.10682075 -0.13513741 -0.106738955 0.06332648
-0.0030951926 -0.04507104 0.08717722 -0.073535584 0.08986784 0.10891865 0.056656964 0.032778006
-0.060166046 -0.01995708 0.071925394 0.002709809 0.09882829 0.035123177 -0.022899566 -0.05089934
0.015725747 -0.07620812 -0.07040327 -0.1618053 0.14922221 0.057645533 0.017064583 0.09089207
-0.036971673 0.05040285 0.09341965 -0.053168543 0.16279599 0.00114011 0.11893399 0.04291214
0.14333008 0.15692313 0.06557171 0.1550625 -0.0011561678 0.07737383 0.0022082005 0.012987761
0.0070855482 0.045615118 -0.011471385 -0.06434334 -0.04765104 0.08932792 0.026346894 0.042692173
0.14691806 -0.004071719 0.03359112 0.05393329 0.01692938 0.084348164 -0.052473914 -0.012528102
-0.01636582 0.06443245 0.034882702 0.015389924 0.039845232 0.0148779405 0.14985341 0.038032427
0.076413244 -0.0862165 -0.06608697 -0.080797136 0.029903078 -0.02028329 -0.10340028 -0.035166882
0.15384322 0.047863822 -0.026669037 -0.05722561 -0.0013337742 0.13352604 -0.08882603 0.07678958
0.09119123 0.15945369 0.031566236 0.1511984 0.02862492 0.090156026 0.18432645 -0.03419763
-0.063548625 0.045553256 0.05870497 -0.112659544 0.24998637 0.08030555 -0.08521793 0.015971411
0.044619486 0.111613244 0.054947507 0.013458223 -0.3527595 -0.030695964 0.20290843 0.068829745
-0.00023788876 -0.11658735 -0.0021213444 0.020366184 -0.1923887 0.061005943 -0.111799605 -0.025256034
-0.06144819 -0.077940725 -0.051676307 -0.124651276 0.16350013 -0.0033811016 0.06737101 -0.022738991
0.053143073 -0.01306849 0.030929042 0.02904533 0.079420574 0.032574914 -0.012625192 0.00064625323
0.1165418 -0.04934266 0.14283173 -0.0037716364 0.04787463 -0.05139823 0.044364594 0.014890275
0.1138344 -0.011318155 0.008129345 0.04567784 -0.009285915 -0.0017794474 0.015474081 0.05172971
00000000: 6a2e 023e 9481 893d f8b7 803d 08f3 993c
00000010: 6a5a 603b 9761 29bd 9d54 e4bd 4806 3cbd
00000020: 4fdc e3bd dff7 8d3d f549 1f3c 5636 eb3c
00000030: 5dd5 dd3d 0c0d 2b3c 0aae 4a3d 8800 6cbd
00000040: ae86 71bc 7254 d13d 8c8a ec3d c748 a13c
00000050: ca15 943d a399 4dbb d909 913d 31fa 103e
00000060: 554d 0c3e d6c6 d23d 0f4e 533e c801 793d
00000070: 3506 f2bd 56bc 4e3d b41c ce3c be64 27bd
00000080: e840 2d3e e316 b5bd 6fe5 0a3d c649 eb3c
00000090: 495d 333c 2df1 a0bd 0264 c33d 234d 7f3d
000000a0: baee e4bb e3a4 f0bb 5359 733c 85f4 853d
000000b0: f5e8 ad3d c584 413d 309e 0c3d dd94 9e3d
000000c0: 6995 bcbd 5550 e0bb 3402 87bc 407f 323e
000000d0: 0ba3 b2bd b4df ef3d d9e2 813d 667b 0b3d
000000e0: f946 ac3b 35cf 6ebd 09ca cf3d 9efb 893d
000000f0: 9d83 103c d6f8 813b d233 90bd 02be 1ebd
00000100: 3d92 013e c030 253d 2488 bd3d f8b9 543e
00000110: be04 8fbd 0952 2d3d 9f03 efbc a103 53bd
00000120: bf21 973c 14a5 06bb 653e f83d 1ab0 5abd
00000130: cca9 5bbd 8870 883d aa66 023b 1415 1c3e
00000140: 1854 273d f8e3 e0bc f9bd f43d d866 1a3d
00000150: a36d d03c b6b7 66bd d799 053e e26f 813d
00000160: 8ddb d73b 59fc ab3d fb81 f8bc 7af6 b538
00000170: 3f52 c83c 1ba1 48bd 841b 16bc ff14 ea3d
00000180: 9245 8fbd b937 233e c6e6 aa3d fa4b a73d
00000190: 8c69 ec3c 8373 e33d c2ef ff3c b638 363e
000001a0: a35e 203e 01e1 1c3d 1a60 ee3d 008b 773c
000001b0: d6c4 dabd 7661 0abe f499 dabd 50b1 813d
000001c0: b7d8 4abb 699c 38bd f889 b23d d399 96bd
000001d0: a10c b83d be10 df3d 2211 683d 3b42 063d
000001e0: ac70 76bd 087d a3bc 9f4d 933d 0d97 313b
000001f0: 7d66 ca3d 52dd 0f3d df97 bbbc d47b 50bd
00000200: 48d3 803c 0113 9cbd 972f 90bd 4ab0 25be
00000210: b5cd 183e b91d 6c3d 06cb 8b3c 9f25 ba3d
00000220: 9c6f 17bd 3873 4e3d cd52 bf3d 42c7 59bd
00000230: feb3 263e be6f 953a aa93 f33d a4c4 2f3d
00000240: 1fc5 123e 75b0 203e 764a 863d b4c8 1e3e
00000250: 8e8a 97ba 2c76 9e3d 75b7 103b 9eca 543c
00000260: e32d e83b ebd6 3a3d 7af2 3bbc 71c6 83bd
00000270: bd2d 43bd 8ef1 b63d 71d5 d73c fddd 2e3d
00000280: b071 163e 0e6c 85bb d896 093d 27e9 5c3d
00000290: 7caf 8a3c bbbe ac3d e3ee 56bd ab42 4dbc
000002a0: 9d11 86bc 29f5 833d 2ae1 0e3d 0526 7c3c
000002b0: c134 233d 9bc2 733c 2c73 193e e4c7 1b3d
000002c0: 8c7e 9c3d 4792 b0bd 9b58 87bd f878 a5bd
000002d0: 4df7 f43c 2429 a6bc 87c3 d3bd 260b 10bd
000002e0: 1489 1d3e db0c 443d 0679 dabc 6765 6abd
000002f0: 09d2 aeba 0dbb 083e 6cea b5bd db43 9d3d
00000300: 78c2 ba3d d447 233e 994b 013d c1d3 1a3e
00000310: cf7e ea3c b9a3 b83d 13c0 3c3e d012 0cbd
00000320: c825 82bd 0d96 3a3d 9f74 703d 0cba e6bd
00000330: 6dfc 7f3e 3c77 a43d bd86 aebd 7ad6 823c
00000340: ecc2 363d 7c95 e43d a310 613d e17f 5c3c
00000350: e59c b4be 1a76 fbbc 3ac7 4f3e 9cf6 8c3d
00000360: c771 79b9 59c5 eebd 4106 0bbb fcd6 a63c
00000370: 8b01 45be 5ee1 793d 31f7 e4bd bee5 cebc
00000380: 19b1 7bbd 639f 9fbd 89aa 53bd 2b49 ffbd
00000390: 946c 273e 7995 5dbb d0f9 893d 1f47 babc
000003a0: 8dac 593d 381d 56bc e75e fd3c 79f0 ed3c
000003b0: 41a7 a23d 466d 053d e5d9 4ebc 5269 293a
000003c0: 78ad ee3d 871b 4abd 7b42 123e 8f2d 77bb
000003d0: 3018 443d f386 52bd a6b7 353d 57f6 733c
000003e0: 0322 e93d c86f 39bc f230 053c b018 3b3d
000003f0: f323 18bc 593c e9ba 0087 7d3c 88e2 533d

fc2.bias f4 [150]
-0.03628566 0.09441631 0.029303072 -0.02429657 0.09916116 -0.057504497 0.011575525 -0.028040517
-0.07230417 0.12198451 0.06339819 -0.06728884 0.078994915 -0.056106668 -0.026296707 -0.044566933
-0.012789604 -0.041777413 0.0007783729 0.016427727 -0.018396366 -0.027911743 0.028473046 0.08965707
0.039390475 0.070440836 0.035124533 0.016041828 0.06838358 0.050310507 -0.069222875 0.043216668
-0.076288775 -0.07015436 0.02274755 0.028552795 -0.011957502 -0.0019070895 -0.0016972284 -0.0702606
0.052643806 -0.05443212 -0.045823686 -0.049355205 0.010300757 0.063141 0.07836335 -0.015100099
0.011397678 0.021680495 -0.08267336 -0.010342725 0.0012381986 0.020002177 -0.010429095 -0.008566853
0.06323326 0.042787418 0.029078087 -0.027312493 0.014470917 0.06878793 -0.031316787 0.02959343
-0.06752305 0.03222537 -0.015986325 -0.007044463 -0.040199704 0.058823593 0.054297417 0.07214108
0.063895695 0.05997868 -0.077253826 0.011430645 -0.016899448 0.05420517 -0.038441278 -0.0018040768
-0.029943004 -0.090010054 -0.052346513 -0.015337685 -0.00024636547 0.08215195 0.017663138 -0.047825262
-0.037488617 -0.012730267 -0.03420547 -0.02748729 -0.02923378 -0.047762275 0.0049605966 -0.0106759295
-0.04584836 -0.0026322135 -0.05670215 -0.020576479 0.05384176 -0.030231424 0.062493954 0.032781553
0.05210878 -0.06575632 -0.16410077 0.05894356 -0.03473718 -0.01568583 0.07300614 -0.004630801
0.000747341 0.049955323 0.04139482 -0.014942862 -0.002450646 -0.06232876 0.061933886 -0.012992728
-0.013882163 0.089573756 -0.052372765 0.017728273 0.007726 0.08711437 -0.033075254 -0.014133463
0.0673687 -0.09090971 -0.01671373 0.008507071 0.04755589 -0.038055524 0.01959144 0.032256197
0.03847132 0.0523393 0.034128357 -0.031105708 0.05962073 -0.06185939 -0.01777625 -0.01218605
-0.018289225 0.15286595 0.040864687 0.015720943 -0.006717012 0.012586304
00000000: 46a0 14bd 575d c13d ff0c f03c 9a09 c7bc
00000010: 0215 cb3d d689 6bbd 45a7 3d3c 3ab5 e5bc
00000020: 3514 94bd 04d3 f93d e9d6 813d bbce 89bd
00000030: 16c8 a13d 1bd0 65bd 316c d7bc d18b 36bd
00000040: 7d8b 51bc cb1e 2bbd b90b 4c3a 7193 863c
00000050: fab3 96bc 2ba7 e4bc 4e40 e93c 209e b73d
00000060: e857 213d 4943 903d bede 0f3d 276a 833c
00000070: b10c 8c3d 6412 4e3d b9c4 8dbd f603 313d
00000080: 4a3d 9cbd 17ad 8fbd 1259 ba3c 8de7 e93c
00000090: 66e9 43bc 4ef7 f9ba 8975 deba cae4 8fbd
000000a0: 08a1 573d 37f4 5ebd 9eb1 3bbd af28 4abd
000000b0: 82c4 283c 1250 813d f77c a03d 6866 77bc
000000c0: 54bd 3a3c 4b9b b13c a750 a9bd 8874 29bc
000000d0: 0d4b a23a 9bdb a33c cbde 2abc fc5b 0cbc
000000e0: 7080 813d dc41 2f3d 2b35 ee3c 73be dfbc
000000f0: 6d17 6d3c b0e0 8c3d 0846 00bd ec6d f23c
00000100: 8649 8abd c0fe 033d c1f5 82bc 3dd5 e6bb
00000110: 72a8 24bd 02f1 703d f866 5e3d b4be 933d
00000120: bfdb 823d 34ac 753d 4137 9ebd 9a47 3b3c
00000130: b670 8abc 3e06 5e3d 9a74 1dbd c676 ecba
00000140: 084b f5bc 3157 b8bd 4c69 56bd ea4a 7bbc
00000150: 9d2a 81b9 483f a83d 49b2 903c 6ce4 43bd
00000160: aa8d 19bd 9c92 50bc 091b 0cbd 062d e1bc
00000170: ae7b efbc 60a2 43bd 808c a23b 18ea 2ebc
00000180: 7dcb 3bbd 3781 2cbb 8340 68bd 0190 a8bc
00000190: 2d89 5c3d e4a7 f7bc a9f9 7f3d f345 063d
000001a0: 0470 553d 40ab 86bd 080a 28be cd6e 713d
000001b0: 9348 0ebd 927f 80bc 3e84 953d f9bd 97bb
000001c0: 35e9 433a f49d 4c3d 9d8d 293d e8d2 74bc
000001d0: 049b 20bb 714c 7fbd 63ae 7d3d 73df 54bc
000001e0: 0372 63bc 7272 b73d d384 56bd e23a 913c
000001f0: 632a fd3b 0569 b23d eb79 07bd 0a90 67bc
00000200: 9af8 893d df2e babd 3beb 88bc 3e61 0b3c
00000210: f7c9 423d 1ce0 1bbd 3a7e a03c 131f 043d
00000220: 1a94 1d3d bc61 563d 2dca 0b3d 66d1 febc
00000230: de34 743d 4660 7dbd 809f 91bc 00a8 47bc
00000240: 49d3 95bc e488 1c3e bb61 273d 35c9 803c
00000250: 611a dcbb c936 4e3c

fc3.weight f4 [2, 150]
-0.026051184 0.09520663 0.014812006 -0.08392976 -0.048506834 0.19548321 -0.015583216 0.031620547
0.16445784 0.15630116 -0.0045978995 0.01861393 0.040826682 0.06530412 -0.03857131 -0.014527967
-0.05081877 0.007386379 -0.008306203 -0.02041177 0.14462113 -0.04864536 0.11069245 0.12291877
-0.0009299008 0.15790679 -0.037072994 0.004282623 -0.013712687 0.08767015 0.0016407907 0.09422664
-0.015575034 -0.010137425 -0.01257494 0.17011277 -0.023967551 0.09109026 0.1534423 -0.009532161
-0.020852312 -0.083947 -0.053559188 -0.09380656 0.114945285 -0.029195355 0.008417327 0.034253016
-0.04400792 -0.057088394 0.038929373 0.26233432 0.33375216 -0.13577238 0.08192148 0.1441444
-0.02791232 0.074075505 0.31097078 0.09859755 -0.011447777 0.29304215 0.049733225 0.44620577
-0.08394281 -0.023337359 0.046881266 -0.061577745 0.15569498 0.0818977 0.044958718 0.087748155
-0.040925108 0.3030249 0.42143834 -0.006383376 0.21227743 0.13200271 0.06657265 0.0644257
0.10594177 0.095717825 -0.076726295 -0.030636204 0.166985 0.09694342 -0.070032716 0.0064394046
-0.11572705 0.1859242 0.106054544 0.10913033 -0.14248727 0.022207955 -0.020179488 0.14391056
0.005902953 0.07657627 -0.041087862 0.2669909 0.09047253 0.0074833105 0.105068 0.15205716
0.05821743 -0.065520786 -0.17923105 0.066901274 0.3469944 -0.020547414 0.013004293 0.034666978
-0.051720366 0.091550425 -0.09930741 0.13436007 -0.019227656 -0.05299309 0.11201938 -0.027283235
0.007212356 0.40186548 -0.10297059 -0.028227048 0.05832367 0.0014844157 -0.048718512 0.24083671
0.51162344 0.31317866 -0.053027958 -0.011186233 -0.010252718 0.15614423 -0.009874573 -0.04725632
-0.030690491 0.0891769 0.41888842 0.05394569 0.0039493907 0.10393042 -0.04584346 0.122441895
0.24361025 0.16375038 0.1534675 -0.03306814 0.19271955 0.07902878 0.07588335 -0.026662791
0.18653455 0.03343101 -0.1653162 0.19108152 0.031283796 0.1687742 -0.16266944 0.32363373
0.072273605 -0.42537022 0.2703635 -0.38913226 0.17971063 0.037408568 0.05009679 0.10958769
0.11652082 -0.045065373 -0.3182959 -0.055332627 -0.051805034 -0.08662466 -0.40273398 -0.211551
0.022691045 -0.17585868 -0.07882385 0.071798645 0.0005889727 -0.036351047 -0.111579016 -0.27263564
-0.15778631 -0.09308696 0.22664934 -0.039931998 -0.17747195 0.09836647 -0.24847175 -0.044910107
-0.05372326 0.053904038 0.07863449 0.027040588 -0.2638755 -0.21322347 -0.0011311247 -0.051332798
0.23306869 -0.09055604 -0.2078817 -0.124640085 0.13862897 -0.13393667 -0.046389006 -0.2828449
-0.2433953 -0.110587984 0.057108246 -0.16194934 0.017070506 -0.044126257 -0.06702519 0.16842927
-0.087450236 0.23033866 0.048944797 -0.19388503 -0.24128504 -0.05809603 -0.074652836 -0.4002977
0.19749266 -0.26997784 -0.053179223 -0.34818697 0.0891614 -0.19119787 -0.26748484 -0.2904636
-0.025841517 -0.06341172 0.32695824 -0.01145215 0.047926493 -0.3928183 0.21776856 -0.25884908
0.17907391 0.16523802 -0.025686502 0.21158072 0.08891525 -0.051732488 -0.08130925 -0.12740873
0.087785535 -0.2966992 -0.2397959 0.17998885 -0.040145386 -0.038393162 0.09444284 0.024002139
00000000: 4b69 d5bc b2fb c23d 0eae 723c 5ee3 abbd
00000010: 1aaf 46bd c02c 483e bf50 7fbc 8c84 013d
00000020: a367 283e 690d 203e faa9 96bb 3e7c 983c
00000030: e139 273d 2bbe 853d f3fc 1dbd b606 6ebc
00000040: 5827 50bd 7009 f23b be16 08bc 9636 a7bc
00000050: 9017 143e 5b40 47bd b9b2 e23d d6bc fb3d
00000060: 96c4 73ba 51b2 213e dad9 17bd 3f55 8c3b
00000070: 2eab 60bc 688c b33d cd0f d73a e6f9 c03d
00000080: 6d2e 7fbc 7117 26bc 1f07 4ebc 0b32 2e3e
00000090: 9957 c4bc 888d ba3d fa1f 1d3e c82c 1cbc
000000a0: 78d2 aabc 68ec abbd e160 5bbd a71d c0bd
000000b0: 6f68 eb3d 192b efbc d4e8 093c e44c 0c3d
000000c0: a641 34bd 85d5 69bd 6874 1f3d af50 863e
000000d0: 90e1 aa3e ea07 0bbe 73c6 a73d 979a 133e
000000e0: 61a8 e4bc e6b4 973d 9037 9f3e 83ed c93d
000000f0: 758f 3bbc 9f09 963e 11b5 4b3d 1575 e43e
00000100: 35ea abbd fd2d bfbc 9206 403d f238 7cbd
00000110: 816e 1f3e fbb9 a73d a226 383d 4eb5 b33d
00000120: 16a1 27bd 1426 9b3e c4c6 d73e a42b d1bb
00000130: 415f 593e b82b 073e 3e57 883d 9ff1 833d
00000140: 00f8 d83d b507 c43d ad22 9dbd c7f8 fabc
00000150: 1efe 2a3e 468a c63d 506d 8fbd a401 d33b
00000160: 4e02 edbd ea62 3e3e 2033 d93d b97f df3d
00000170: 2fe8 11be 75ed b53c 744f a5bc 4a5d 133e
00000180: 8f6d c13b 05d4 9c3d bf4b 28bd 08b3 883e
00000190: a949 b93d 8f36 f53b e42d d73d dfb4 1b3e
000001a0: 6675 6e3d c32f 86bd 5888 37be 8903 893d
000001b0: 40a9 b13e 0d53 a8bc f50f 553c f6fe 0d3d
000001c0: bcd8 53bd ca7e bb3d af61 cbbd b095 093e
000001d0: 5183 9dbc 480f 59bd 6b6a e53d 1781 dfbc
000001e0: a155 ec3b 50c1 cd3e 3fe2 d2bd 693c e7bc
000001f0: cde4 6e3d ba90 c23a 108d 47bd e69d 763e
00000200: c1f9 023f f458 a03e d833 59bd 7646 37bc
00000210: 04fb 27bc 46e4 1f3e f6c8 21bc d88f 41bd
00000220: a06a fbbc 61a2 b63d 8b78 d63e 28f6 5c3d
00000230: e469 813b 79d9 d43d 5ac6 3bbd d1c2 fa3d
00000240: f774 793e 2eae 273e 9626 1d3e 7572 07bd
00000250: 4658 453e d7d9 a13d bb68 9b3d ed6b dabc
00000260: ea02 3f3e f4ee 083d a648 29be e0aa 433e
00000270: 7023 003d 25d3 2c3e d192 26be 52b3 a53e
00000280: 2f04 943d 20ca d9be 166d 8a3e 583c c7be
00000290: 1006 383e ba39 193d 4b32 4d3d 836f e03d
000002a0: 78a2 ee3d 7896 38bd aef7 a2be 77a4 62bd
000002b0: 8431 54bd 4568 b1bd 2633 cebe d3a0 58be
000002c0: 92e2 b93c 4c14 34be 666e a1bd 2b0b 933d
000002d0: 4a65 1a3a d6e4 14bd 8a83 e4bd e696 8bbe
000002e0: bc92 21be 60a4 bebd c416 683e bc8f 23bd
000002f0: 35bb 35be 5c74 c93d 616f 7ebe a9f3 37bd
00000300: ec0c 5cbd 7bca 5c3d 1f0b a13d 3984 dd3c
00000310: b11a 87be 4157 5abe 3f42 94ba 5742 52bd
00000320: 8fa9 6e3e 7275 b9bd f1de 54be 4d43 ffbd
00000330: c1f4 0d3e b226 09be 6602 3ebd 0cd1 90be
00000340: 9e3c 79be f47b e2bd 56ea 693d 0cd6 25be
00000350: 72d7 8b3c bcbd 34bd 8144 89bd b978 2c3e
00000360: 1c19 b3bd e6dd 6b3e 577a 483d cc89 46be
00000370: 6d13 77be 1af6 6dbd 96e3 98bd d2f3 ccbe
00000380: 843b 4a3e 893a 8abe 75d2 59bd 9045 b2be
00000390: 419a b63d 60c9 43be c6f3 88be a5b7 94be
000003a0: 97b1 d3bc 01de 81bd 1267 a73e cca1 3bbc
000003b0: 924e 443d 7b1f c9be b9fe 5e3e de87 84be
000003c0: 275f 373e 2834 293e 806c d2bc 9ea8 583e
000003d0: 3319 b63d 72e5 53bd 7785 a6bd 6f77 02be
000003e0: e7c8 b33d f5e8 97be 0e8d 75be ff4e 383e
000003f0: 7d6f 24bd 2642 1dbd 3f6b c13d 22a0 c43c

fc3.bias f4 [2]
-0.06118802 0.057910133
00000000: 4aa0 7abd 2d33 6d3d
