agent1_checkpoint_critic.pth (torch_old, 164531 bytes, 5 tensors)

fcs1.weight f4 [200, 52]
00000000: aab2 1bbe c1cc 55bb 6391 b93c f261 98bd
00000010: 4f7a de3e b964 843d af07 adbd 249a 99bd
00000020: 1d0a 623c 937d b63d 4a11 673c 223b 4439
00000030: c332 98bd 26f5 97be 2e24 803c 1e9b c33b
00000040: 8c28 8a3d 5475 b43e 98c5 d33c caf4 c3be
00000050: 7d87 e9be ab1d 01bf 5111 723c 1aa2 dcbe
00000060: 6069 37bd 8f86 ccbe 02cb 24bc 0af6 fcba
00000070: b113 b7be d404 0cbd 8953 4bbc 5193 3fbd
00000080: a9fc 69bd 7082 acbe 3239 753d cc2e 46bd
00000090: 504b dcbb 006f 60be 5e74 473d edbb b7bd
000000a0: 8f3d c7bd 558c 163d ff4f 49bd eee1 fc3d
000000b0: 99c9 013f 92ee f0be c5d1 59bb 7506 073e
000000c0: 30be 35bf 2883 94bf 61e7 213d bec9 2e3f
000000d0: 2d8a f6bd fd05 55bd 0460 f5bc 7679 c3be
000000e0: eaaf 98bd 81af f2bd 6fb2 233d 8249 dabe
000000f0: 264d 01be e314 a2bd a4c7 acbd 764f 103c
00000100: efd6 1c3e 7026 82bd 7cae a53c efef 093d
00000110: d819 13be 95cc dfbd abcc f2bc f34f c5be
00000120: 8f0b c63e d0f8 acbe 63bc 18bc d33d c3be
00000130: 82e7 dd3e d6ae e9bd dd0a 6dbd ac57 ed3d
00000140: 6a1f b83d ad49 5cbc 614b 8ebd 7b84 003e
00000150: 70ee 1d3f fd20 36bd f294 1e3b 8612 8c3e
00000160: c93f aebd d168 2dbd 888c a9bc 78c0 933e
00000170: 14b7 753f 0a75 f2bd 1e24 87bc aa18 793e
00000180: 599d f5be e626 90be 7b41 553d 7a05 6f3e
00000190: aa62 ccbd 505a 793f fce6 1b40 bda0 05be
000001a0: 7941 d73d 0fc0 053f 8a7a 1ebc fdd9 363e
000001b0: 1188 b1be 0430 a53d f291 b3bd 01b0 013e
000001c0: f9bd 2f3e 11bf 223f df3c 8dbd 04b9 5f3e
000001d0: 56a8 1b3d 172e 3e3d 4f9f 1b3d bde9 fc3d
000001e0: 479b 423e 7bba 453f bf1b 5bbc d409 6ebe
000001f0: 86a4 173f 4734 cebd 6a99 b3bc 85cc 26be
00000200: e128 48bd 0302 c93c b4f0 8e3b d82e 22bd
00000210: 45a6 d53e 9ef8 d93d 3760 7dbc db2a abbd
00000220: 3e3c 1bbc 706d 2f3c e264 e8bc 1f79 16be
00000230: 2cff 86bd 604d b33d cb04 a4bb eb14 60be
00000240: 1df4 3f3e 3188 8cbe affe 443c 382b d1be
00000250: 7a0a 24bf 10c8 2ebe 22a5 c13c c6e9 f1be
00000260: a01f 27be 4048 d5be 5a43 93bf f943 9fbc
00000270: cf01 54ba e7da e0be f0e6 50bc d922 a13e
00000280: be30 a2be 8f8c 4cbe fef0 aa3d c39a 983e
00000290: f12f 913d 0736 86be a171 953c 985b 2ebe
000002a0: 62de fbbd 44aa 6cbe cd6b 7f3b 04e2 21be
000002b0: e427 c03d c6b2 fbbe 8556 1bbd 3fe2 043e
000002c0: c4d6 e33e 6745 d2be e83c a2bc 19ae cd3d
000002d0: 7333 883e cbfb 603f 5e45 e23d c029 a23d
000002e0: 4202 9e3e 146e e9bd e2dd c33d 0c7f b13d
000002f0: 555f 413e ff69 653f 518e 153d 8d57 bcbc
00000300: c7fd 243c b514 86be db4a 853c 835e ad3c
00000310: 6cd3 ad3d e5eb 4c3f 7402 c1bd cc34 703e
00000320: 3211 c1be 4b08 aebe 9b03 0dbc 5926 883e
00000330: 3301 02bd e661 223e b68f 56c0 627b 903f
00000340: 2626 01bd ab31 7fbe 3c9d b23c fd90 29be
00000350: 31b5 a3bd d4ad 1dbd f74b f5bb 03ab cfbd
00000360: 58c4 ea3d 96fb 7ebe 4cf4 fdbb 309e 263d
00000370: 8caf e83c c981 eabe e214 213d f2df 6c3d
00000380: 993e da3d f5ac 86bd e68a 2d3d 15b5 343f
00000390: 3304 473d 15c8 9dbf 68bc 30bd fda9 293f
000003a0: f559 70bd de8e 04bf a2f7 31bb 209b 083e
000003b0: 4c24 383b 29d6 4ebc a3c2 c43c 2b1f d33d
000003c0: f460 98bc 360b f0be 38c8 febc ee20 a03c
000003d0: c0a4 063d d3ac cfbe 28ac 533a bf55 d4bc
000003e0: 5142 e5bc a705 20bf b479 b2bd 38da a4be
000003f0: 8141 10bd c173 a0bf 3cfd 47bd c226 b1be
-0.15204874 -0.0032623264 0.022652334 -0.074405566 0.4345269 0.06464524 -0.08448731 -0.07500103
0.0137963565 0.0891067 0.014103243 0.00018714045 -0.07431557 -0.2967922 0.015642252 0.005969419
0.06746015 0.35245764 0.025851056 -0.38272697 -0.45611182 -0.50435895 0.014774636 -0.43092424
-0.044778228 -0.3994641 -0.010058166 -0.00192994 -0.3575721 -0.034184292 -0.012410053 -0.04677135
-0.05712572 -0.33693266 0.059869 -0.048384473 -0.006722845 -0.21917343 0.04869496 -0.08971391
-0.09728538 0.036754925 -0.049148556 0.1234778 0.5069824 -0.47057015 -0.0033236605 0.13186057
-0.7099333 -1.1602526 0.0395273 0.68276584 -0.12038074 -0.052007664 -0.02995301 -0.38178605
-0.07455428 -0.11849881 0.03996509 -0.42634207 -0.12627086 -0.0791414 -0.08436516 0.008808007
0.15316366 -0.063549876 0.020224802 0.033676084 -0.14365327 -0.10927693 -0.029638609 -0.3853756
0.38680694 -0.3378358 -0.009322259 -0.38133106 0.4334069 -0.114103004 -0.05787169 0.11588988
0.08990367 -0.0134453 -0.06947971 0.12550537 0.6169195 -0.044465054 0.0024197665 0.27357882
-0.0850826 -0.04233629 -0.020696893 0.2885778 0.9598248 -0.1183873 -0.016496714 0.24325815
-0.4797161 -0.28154677 0.0520644 0.23341933 -0.09979756 0.9740343 2.4359732 -0.13049598
0.10510535 0.52246183 -0.00967277 0.17856593 -0.34674123 0.08065799 -0.08768071 0.12664796
0.17162313 0.63572794 -0.06896376 0.21847922 0.038002335 0.046430673 0.037993725 0.123492695
0.19004546 0.7723767 -0.013373314 -0.23245937 0.5923542 -0.10068565 -0.02192374 -0.16288956
-0.04886711 0.024537092 0.00436219 -0.039595455 0.41728416 0.10643123 -0.015464834 -0.083577834
-0.009474812 0.010707244 -0.028368417 -0.14694642 -0.06591639 0.087549925 -0.005005454 -0.2188298
0.18745466 -0.27447656 0.012023612 -0.40853286 -0.64078486 -0.17068505 0.023638312 -0.47248667
-0.16320658 -0.41656685 -1.1504929 -0.019441592 -0.00080874277 -0.4391701 -0.012750372 0.314719
-0.31677812 -0.19975494 0.08346747 0.29805574 0.07089222 -0.26213095 0.018242659 -0.17027128
-0.122982755 -0.23111826 0.0038974166 -0.15808874 0.093826085 -0.4915983 -0.03792431 0.12976931
0.4449979 -0.41068575 -0.019804433 0.10042972 0.26601753 0.87884206 0.11048387 0.079181194
0.30861098 -0.11397949 0.09563805 0.086668104 0.18884023 0.8961486 0.036512677 -0.022990966
0.010070271 -0.26187673 0.016271045 0.02116323 0.08487591 0.80047446 -0.09424296 0.2345764
-0.3770843 -0.33990702 -0.008606817 0.26591757 -0.031739425 0.15857658 -3.3525214 1.1287653
-0.03153052 -0.2492129 0.02180349 -0.16559215 -0.07993544 -0.038495854 -0.0074858624 -0.1014004
0.11463231 -0.2490066 -0.0077500697 0.040678203 0.02840402 -0.45802143 0.039326556 0.05783076
0.10656471 -0.06575958 0.042368792 0.7058881 0.04858799 -1.2326685 -0.04314843 0.66275007
-0.05867954 -0.517805 -0.0027155657 0.13340425 0.0028097806 -0.012624302 0.024018591 0.10308679
-0.018600918 -0.46883553 -0.031101331 0.019546952 0.03287196 -0.40561542 0.00080746645 -0.025919793
-0.027985724 -0.62508625 -0.08714619 -0.32197738 -0.03521872 -1.2535325 -0.048825487 -0.34599882

fcs1.bias f4 [200]
00000000: aae3 8dbe d66c 863c 8152 2ebf ea70 f8bc
00000010: 8c85 a7be 660e 34bf d336 51bf 8364 4cbd
00000020: 091f 8ebf 81d5 23bf 51f3 ad3d d771 353d
00000030: d0ea aabe c418 47bf 44f9 9cbe 7abd 0ebf
00000040: e185 42bf 050e febe 7b47 fbbe eee2 52be
00000050: f2b9 20bc 1ddd 033d 9d06 c33e 23d2 c2be
00000060: 3643 44bf a7dc 57bf 6fd6 31bf 9782 e9be
00000070: 555f 62bd 0225 c9bd f32d db3c f9c3 50be
00000080: 4aef fbbe a953 833d 71a1 4bbe bab8 61be
00000090: 71d9 8dbf bbd2 96be 5ab5 78be ebd5 13bf
000000a0: 993f bcbe 9de1 f03c 86d4 b83d 48a6 d9bd
000000b0: 14a2 06bf b423 f4be 59d9 9dbe 48e8 2abf
000000c0: ea0e 29bf c760 7fbc 5ceb 1a3f b653 18bf
000000d0: 3cf9 293d 5edf 463f cb14 2dbf a112 0dbf
000000e0: 0174 b7be bfed 6dbe 78f4 1cbf 48cc 4abe
000000f0: 2469 2f3f c6cb 383d 8695 24bf 2822 6d3e
00000100: 5049 353f ef52 fc3e a36a 46bf b8d1 b9bd
00000110: b7c6 f8bd cbb1 96bd d084 843e e960 55bd
00000120: 1fc1 43bf 439b acbe 910b dcbe b975 60be
00000130: 6672 44bf 7d43 efbe 595b e1be f990 c4bd
00000140: 95b7 9fbe 9d20 31be 57f7 57be ae0a 273d
00000150: 0dc7 c5be c80f e73d ebf5 f3be 1722 5ebf
00000160: 9868 25be b8f2 123e ccf1 babe d580 153c
00000170: e00e d2be ff14 73be f6b0 ed3d 8dd8 b4be
00000180: d6ac c7be 6140 06bf 931e 483e 7bd6 70be
00000190: 052b a8be f96d 3ebf f79d 89bd 8a8c 50be
000001a0: 8e9b fbbe 7217 51bf 77b0 e5be 3f99 2abf
000001b0: 1226 4cbf 6a83 473e fa6c 0bbe 410e 4bbe
000001c0: 1187 ac3e 3802 dfbe 6a26 333f 2933 95be
000001d0: e4b3 aebe 2259 21be 7f30 04bf 8e10 2dbf
000001e0: 58c3 3d3e 0224 c0be d812 b8bd 7a3b cfbe
000001f0: 6f1e e2be d380 28be b714 8c3c 4c37 1ebf
00000200: 5e28 433e 4a02 933e 1ad3 83bf 8232 dd3d
00000210: fa14 183d 8666 b8be 28d1 10bf b3cf 57bf
00000220: f0d8 cbbe c896 bf3d 92ca d3be 38f4 6fbf
00000230: 5f5a 7d3d 1071 4cbe 62f7 0d3f 8c37 12bf
00000240: 7c06 4ebf 4875 82be b136 3bbe 1e73 1fbf
00000250: 9368 10be d538 f2be e824 0dbf 97ff f63d
00000260: 6833 1cbf fb43 c63e cc23 58be 7aa7 cfbe
00000270: 8365 21bf 593e dfbe 8842 bfbe d799 213e
00000280: 9691 d73e ecda c0bf d9d1 46bf faf6 acbc
00000290: e140 8abe 7847 09bf c3df 3ebf fcca a3be
000002a0: 0111 78bf 5351 b4be 13af fabd fc8b 893d
000002b0: 06d9 09bf 4e17 32bf cfcf dcbd 0506 05bf
000002c0: 80d7 cabe d2dc a2be d776 43bf 05ea 88bf
000002d0: 898c 38be a2db f3be 8c18 f3bd 95fb acbf
000002e0: 2950 96be 7a3a 05bf a92f 40bf 6293 d9bc
000002f0: e92a e3be bd51 a9be 42af 57bf 3697 81be
00000300: fb33 03bf 9819 403f 203b f8be 3322 96be
00000310: 5dce 6dbe 222c a9be 2c62 7bbe 5dd4 3d3f
-0.27712756 0.016409319 -0.6809464 -0.03032728 -0.32719076 -0.7033447 -0.8172428 -0.049900543
-1.1103221 -0.63997656 0.084936745 0.04429802 -0.33382273 -0.77772164 -0.30658925 -0.5575787
-0.75985533 -0.4962007 -0.49077973 -0.2059438 -0.009809958 0.032193292 0.38090983 -0.38050947
-0.76665056 -0.84321064 -0.69467825 -0.45607445 -0.055266697 -0.09821512 0.026755309 -0.20387258
-0.49206 0.06412441 -0.19885804 -0.22043124 -1.1081983 -0.2945765 -0.2428793 -0.5774829
-0.3676727 0.029404456 0.09024911 -0.10627419 -0.5259106 -0.4768349 -0.30829886 -0.66760683
-0.6603838 -0.015587038 0.6051538 -0.5950273 0.041497454 0.7768458 -0.6760985 -0.5510655
-0.3583069 -0.23235224 -0.6131053 -0.1980449 0.68519807 0.04511621 -0.64290655 0.23157561
0.7081499 0.49282023 -0.77506465 -0.09073204 -0.12147277 -0.0735813 0.25882578 -0.052094374
-0.76466554 -0.33712205 -0.42977574 -0.21919908 -0.7673706 -0.46731177 -0.44015005 -0.09597964
-0.3119475 -0.17297597 -0.21090446 0.04078167 -0.38628426 0.11282307 -0.47648558 -0.86770767
-0.1615318 0.14350402 -0.365126 0.009124954 -0.41026974 -0.23738478 0.11606018 -0.35321465
-0.3899905 -0.52441984 0.19542913 -0.23519318 -0.3284532 -0.74386555 -0.067195825 -0.20366111
-0.49142116 -0.816764 -0.44861194 -0.66640085 -0.7974559 0.19483724 -0.1361579 -0.19829656
0.33696797 -0.4355638 0.6998049 -0.29140595 -0.3412162 -0.15756658 -0.516365 -0.67603385
0.18531549 -0.37527472 -0.08987969 -0.40475065 -0.44163844 -0.16455393 0.017099721 -0.61803126
0.19058368 0.28712684 -1.0298798 0.10800649 0.03712938 -0.3601572 -0.5656915 -0.843013
-0.39813948 0.09354931 -0.41365486 -0.93732023 0.061853763 -0.19965005 0.554556 -0.5711601
-0.80478644 -0.25480103 -0.18282582 -0.6228503 -0.14102392 -0.47308984 -0.5513444 0.12060469
-0.6101594 0.3872374 -0.21107405 -0.40557462 -0.6304552 -0.43602255 -0.37355447 0.15781341
0.4210326 -1.506681 -0.7766395 -0.021113861 -0.27002624 -0.5362468 -0.74560183 -0.31990802
-0.96900946 -0.35218295 -0.12240424 0.06716153 -0.53846776 -0.6956681 -0.10781824 -0.5196231
-0.39617538 -0.31809098 -0.7635321 -1.0696417 -0.1802236 -0.47628504 -0.11869916 -1.3514277
-0.29358032 -0.52042353 -0.75072724 -0.026559535 -0.44368675 -0.33070174 -0.842518 -0.25310677
-0.5125119 0.7503905 -0.4848261 -0.29322967 -0.23223253 -0.33041483 -0.24549168 0.74152166

fc2.weight f4 [150, 200]
00000000: 68ed 96bc 1dc7 e0bc fc9f 67bd f2cc e4bd
00000010: 98cb 663c 2943 4cbc f305 ca3c 55ea f1bd
00000020: abc4 c2bd 3812 2fbc e9b7 8a3b 4145 adbd
00000030: 3deb e7bc 029c 3bbd 7b4e 8b3d e4e3 96bc
00000040: 75cc d6bd 0c3b 79bc c991 d3bc 954c a2bb
00000050: 5dfe 65bd 9e8d 8ebd 49f0 9a3d 3f8c 03be
00000060: b595 fd3c ba8d 27bd 8df4 4fbd 5571 95bd
00000070: 64a8 6bbd 7783 b7bd d5ff fd3c 1a4c cabc
00000080: 1367 8fbd b997 a53c 55f1 bebd 423f 2ebe
00000090: f5d2 213e cc82 d7bd 1818 b0bd dea3 44bd
000000a0: 0cd2 4a3d 1513 0f3d 65a1 92bd 9923 56bd
000000b0: 2fd0 623d fc13 a9bc 91b3 eebd 0244 30bd
000000c0: 9965 e9bb aae9 80bd ca4b 1c3d 4dfc 1fbe
000000d0: 254f 633b 9fbd abbd c898 6bbd 80c6 983d
000000e0: 653f 04be b6f1 01be c722 0dbe bf7a 92bd
000000f0: 458e 02be bad7 90bc 696e 213d bd3f 9ebd
00000100: ea54 4a3d 9c86 0bbc 4ac0 42bc 5d09 97bd
00000110: 97b8 9fbc fa83 f23c 80e2 c4bd 0a66 e9bd
00000120: 43b6 4c3d af63 7b3d 3734 803c b964 4cbb
00000130: 32f8 f8bc b657 0dbd a50e aabd 4a02 77bd
00000140: 47a3 c3bc 9652 89bd 9054 0dbe fcb4 78bd
00000150: 35a5 3fbd e2ef e13c 1e21 01bd 9e30 c7bd
00000160: 641d 483d b7b2 33be fd17 9ebc 7495 7bbd
00000170: b0b1 8b3c 5f08 1d3c 8782 4d3d 15fd 1ebe
00000180: d840 c3bd 1b03 9bbd 9335 943d f1df 93bc
00000190: 8d8a 883c 5bbf cdbd f505 c4bc 7a4d 20bd
000001a0: c4ee 403b 0234 97bd eed8 923c 0e10 d9bd
000001b0: 108e c93c af9d 7bbc 3fb7 31bc 7010 b73c
000001c0: 7683 40bd bbc9 a6bd 8859 39bc 84a6 23bc
000001d0: a94c 9ebc 156f c23b 326f 12bd bb1e bc3c
000001e0: a41c 40bd 03c4 5d3d 8e10 d8bd 8f69 d0bc
000001f0: c319 00be 7822 b6bd 92e2 2abd 4a01 7f3a
00000200: f646 02bd ccc7 02bd ae0f 803c 7298 b2bd
00000210: f963 0d3d e496 84bc 070b c3bc ffcf 7fbc
00000220: 71d9 493d a9e3 8dbc c631 a9bd aea9 8fbd
00000230: e152 00bb 0e7e 3abc f27e b1bd 0ddd f7bd
00000240: bbf1 ffbd 8f1e 16bd 81fa 00be ebc3 41ba
00000250: 8656 0e3d e761 243d 1722 90bd 671b 47bd
00000260: 4a5a 86bd 8caf d13c d69c aa3d 26ca 86bd
00000270: 293b be3c 6566 f63c 42d2 903b 1b19 3ebd
00000280: 8e47 8bbc 1f3b 01be 96a8 783d 2d40 b5bc
00000290: 12a6 003d 3ed3 b4bd f6fe 87bd f32b 85bd
000002a0: 8a78 b8bd a550 06bc 3d30 063d 1e03 eebd
000002b0: 7143 2ebd 44a8 993c 86cc 98bd 9074 ebbd
000002c0: b43b 7bbd 0c72 5cbd fb3a bcbd 1d25 35bd
000002d0: e823 03be 8ae0 a73d c8e6 30bd 46ab 9cbd
000002e0: 0042 bfbd c414 82bd 54c3 b4bd ee10 e73c
000002f0: 77ed 0abc 09ff 18be 6ea8 8bbd 6646 d1bd
00000300: 125a cfbd c6e9 9d3d ebad a9bd 54c3 c73c
00000310: 512e b93c cc25 833d 40e8 113d 2795 b3bb
00000320: 8fc8 5e3e e663 78be 0697 9cbb 9fcb 82be
00000330: 25ae e4bd 1cca 56bf 1ac3 7ebe 1bfb b2be
00000340: 859d 99be f71f 82bc dc64 1cbd 89c2 0dbe
00000350: baef e7be a617 0dbe 1d2f 44be 72fe 583e
00000360: 94a3 85be 2c33 85be 8367 babe 9ebe 90bd
00000370: 52eb 233e 3839 e3bd fda9 033d d540 7b3a
00000380: 5e9d 81bd 7984 a5bd 24a2 14be ab07 a4be
00000390: 78ef ae3d 86c8 98bd 2e42 96be c8e7 20bd
000003a0: ebb8 3d3d 8354 453d 3b26 2ebe a827 00bf
000003b0: 1212 2cbe 3a70 bebe 007d 05bf fcff 33be
000003c0: f831 bc3d 8e12 3ebe cc8a 273b 672d d43d
000003d0: 3d77 60be eb19 97be 05e9 42be abf1 b0bd
000003e0: e888 513e 3ed7 cf3d 2e2b 403d c444 42be
000003f0: 92f5 243e 798e 0a3e f016 1bbd e370 0fbf
-0.018423751 -0.027438695 -0.056549057 -0.11171903 0.0140866265 -0.012467184 0.02466104 -0.118122734
-0.09510168 -0.010685496 0.0042333496 -0.08460475 -0.028310413 -0.045803078 0.06802078 -0.018419214
-0.10488216 -0.015211832 -0.025826352 -0.004952977 -0.056150783 -0.06960605 0.07565362 -0.12846468
0.030955175 -0.040906645 -0.05077033 -0.07297007 -0.057533637 -0.08960622 0.03100578 -0.024694491
-0.07002082 0.020213949 -0.09323374 -0.17016318 0.1580313 -0.105229944 -0.085983455 -0.04800784
0.049516723 0.034930307 -0.0715969 -0.052280042 0.05537432 -0.020639412 -0.11655343 -0.043033607
-0.007122707 -0.06294568 0.038158216 -0.15623589 0.0034684625 -0.08385777 -0.05751875 0.07459736
-0.12914808 -0.12689862 -0.13782798 -0.07152318 -0.12749584 -0.017680991 0.039411936 -0.07727001
0.049397387 -0.00851598 -0.011886666 -0.07374833 -0.019497199 0.029603947 -0.09613514 -0.113964155
0.049978506 0.061374363 0.015649898 -0.0031187965 -0.030391786 -0.034507476 -0.083035745 -0.060304917
-0.023881568 -0.06705205 -0.1380179 -0.060719475 -0.046788413 0.027580205 -0.031525724 -0.0972607
0.048856154 -0.17548643 -0.019298548 -0.061421826 0.017052501 0.009584515 0.05017331 -0.1552623
-0.09533852 -0.07568952 0.07236781 -0.01805112 0.016667629 -0.10046264 -0.023928622 -0.039136387
0.002943919 -0.073829666 0.017925706 -0.10598765 0.024603873 -0.015357419 -0.010846912 0.022346705
-0.04700037 -0.08143946 -0.01131285 -0.009988431 -0.019323664 0.005933652 -0.035750575 0.022963872
-0.046902314 0.05414201 -0.105500326 -0.02544096 -0.12509827 -0.08893293 -0.04171998 0.000972767
-0.031805955 -0.031928822 0.015632477 -0.08720483 0.03451917 -0.016185232 -0.02380897 -0.015613555
0.049279634 -0.01732047 -0.08261447 -0.07014786 -0.001958065 -0.011382593 -0.08666791 -0.12102709
-0.12497278 -0.036650237 -0.1259556 -0.000739156 0.034750484 0.04013243 -0.07037752 -0.048610117
-0.0656019 0.025596403 0.08330695 -0.065815255 0.02322157 0.030078122 0.004419596 -0.04641066
-0.017001893 -0.12620209 0.06070765 -0.022125328 0.031408377 -0.08829354 -0.06640427 -0.06502523
-0.09007366 -0.008197938 0.032760847 -0.11621688 -0.042544786 0.018756993 -0.07460885 -0.11496842
-0.061336234 -0.0538197 -0.09190937 -0.044224847 -0.12806666 0.08197124 -0.04318884 -0.07649855
-0.093387604 -0.06351617 -0.088263184 0.028206315 -0.008479468 -0.14941038 -0.06819235 -0.102185056
-0.101246014 0.07710604 -0.08285125 0.024385132 0.022605093 0.064036936 0.03562188 -0.005480427
0.21756195 -0.24256858 -0.0047787456 -0.25545976 -0.11166028 -0.83902144 -0.24879113 -0.34957203
-0.3000299 -0.015884383 -0.038182124 -0.1384374 -0.45300084 -0.13778552 -0.19158597 0.21190813
-0.26101363 -0.26015604 -0.36407098 -0.07067607 0.16007736 -0.11094898 0.032144535 0.0009584551
-0.063288435 -0.08081908 -0.14514977 -0.320371 0.08541769 -0.07460122 -0.29347366 -0.039283544
0.04631893 0.0481763 -0.17006771 -0.5006051 -0.16803768 -0.37194997 -0.5214386 -0.17578119
0.09189218 -0.18561766 0.0025564907 0.10360222 -0.21920486 -0.2951196 -0.19034202 -0.086398445
0.20462382 0.10148476 0.04691618 -0.18971545 0.16109303 0.13530912 -0.03786367 -0.56031626

fc2.bias f4 [150]
00000000: 94e2 1ebe be81 4fba 8fdb 03be fed9 02be
00000010: af8c 813e 9558 033f 6465 a0be a36d 3abf
00000020: a170 37bd 3b2b 8abd 89d6 82bd 3f86 d1be
00000030: 1d5c de3d 7034 9e3d 7f31 023d e135 a43d
00000040: 4cec c4be a42d d5bd 0d5d 54bd c1cf d4be
00000050: 5222 30be 2f90 023e d639 04be cf35 67bc
00000060: 37bb 0abe d5e6 29be 92d9 9ebc df02 1cbe
00000070: ac73 dbbd 9aa7 82be 46f5 ecbd 9c85 ccbe
00000080: 0ef3 f0bd 3d0d 17be 81d2 59be 54ee cebd
00000090: 2632 363e b608 f2be 70cd d73d 7232 39be
000000a0: 18f7 0d3e f6a8 cebd b846 8abd c9a9 b6bd
000000b0: 3b57 e4bd 939d 253d a06f 60be 3d8b 8dbe
000000c0: 372e 72bd 9613 cfbe ee89 95be 8116 95be
000000d0: 534d 75be 1d24 a0bb 1560 23be f58a 8cbd
000000e0: 43e9 fc3d b150 14be 6b1f a5be 7b9b 093d
000000f0: 3011 1abe 91fb 32be 604b 23be a0d6 1fbe
00000100: 9ace aebd 2ebe 8c3e f750 a0bd 04cf 0ebe
00000110: 7203 e5bc 00ae 1fbd be39 933d 41dd e9bd
00000120: e4ba 9abd a2bc f2be e550 43be ac30 fdbd
00000130: 6a23 7c3f d48a 86be 8378 39be e2a3 cdbd
00000140: 0d95 b0bf 6faf 7dbe 81df 6dbd 6389 95bd
00000150: 1cc0 b33d 8e18 f0be e7d9 40bd d4b7 28be
00000160: fff0 7cbe 9155 0abc fd4c dc3e 03ff d2bd
00000170: 088b 6bbd 7f45 d03d 8e36 f4bd 9677 d1bd
00000180: a117 2abe a0c5 25be f13c 5ebe 77e3 363f
00000190: c046 08be 3215 41bd b594 c2bd d408 81bc
000001a0: 6f6a 25be e5e0 743e 9ac8 ae3d 5db5 e4bc
000001b0: 1954 77be d728 70bd 0c1b 15bd edb2 5dbe
000001c0: 9a4d c8bd eddc 46bf eed4 0bbe 4ed6 95be
000001d0: 2b47 d1bd f16e 59bd e070 bdbd cdf9 f53e
000001e0: f62f 9fbd 8dbf 67be 5ef0 0bbe 6269 0ebe
000001f0: 2e7b 1abe 6845 42bd 9532 a13e de11 e9bd
00000200: 9187 07be 9054 32be 9518 4b3d 6a04 063e
00000210: 86f0 08bd cbe2 983c 79e7 f5bd 9693 efbd
00000220: 1ede 993d ff78 adbe ab86 56be d5ce bcbd
00000230: b614 abbd 64e4 4e3c 1f46 20bd 4abb f1bd
00000240: f8c8 cbbd 8823 3bbd dd59 0ebe 570c 69bd
00000250: d7f2 debd 7e5a 1abe
-0.1551612 -0.00079157564 -0.12876724 -0.1277847 0.25302646 0.5130704 -0.31327355 -0.7282354
-0.044785146 -0.06746527 -0.063885756 -0.40922734 0.10857413 0.077248454 0.031785484 0.08018089
-0.3846153 -0.10409096 -0.051846553 -0.41564754 -0.17200592 0.12750314 -0.12912688 -0.01411195
-0.1354798 -0.16591962 -0.019390855 -0.1523547 -0.10715422 -0.25518495 -0.1157022 -0.39945686
-0.11765109 -0.14751144 -0.21271707 -0.10104051 0.17792568 -0.4727227 0.10537231 -0.1808565
0.1386379 -0.100908205 -0.0675177 -0.08919103 -0.111494504 0.040433478 -0.21917582 -0.27645293
-0.059126105 -0.4044463 -0.29206795 -0.29118732 -0.23955278 -0.0048871175 -0.15954621 -0.068624415
0.12349179 -0.14483906 -0.32250533 0.033595543 -0.15045619 -0.17478777 -0.15946722 -0.15609217
-0.085355 0.27488846 -0.07827943 -0.13946158 -0.027955744 -0.0389843 0.07188748 -0.11419154
-0.07555178 -0.4740954 -0.19073828 -0.12362799 0.9849154 -0.26277792 -0.18112378 -0.10041024
-1.3795487 -0.24773954 -0.058074478 -0.07301595 0.08776876 -0.46893734 -0.047082808 -0.16476375
-0.24701308 -0.008443252 0.43027487 -0.10302546 -0.057505637 0.10169505 -0.11924468 -0.10227887
-0.16610576 -0.16188669 -0.21702935 0.71440834 -0.13308239 -0.047139354 -0.0950102 -0.01575128
-0.16153882 0.23913915 0.085343555 -0.027918512 -0.24153174 -0.058632698 -0.036402747 -0.21650286
-0.09780426 -0.77680856 -0.13655445 -0.29265064 -0.10218652 -0.053084318 -0.09250045 0.48042145
-0.0777282 -0.22631665 -0.13665912 -0.13907388 -0.15086052 -0.047429472 0.31483904 -0.11380361
-0.13235308 -0.1741507 0.04958399 0.13087621 -0.033432506 0.01866283 -0.120070405 -0.11698072
0.075130686 -0.33881375 -0.20949809 -0.092191376 -0.0835356 0.012627695 -0.039129373 -0.11803301
-0.09950441 -0.045688182 -0.13901468 -0.056896534 -0.10886162 -0.15073583

fc3.weight f4 [1, 150]
00000000: b03a ae3c 65a8 7dbc e3e0 77bb 5f3a 84bc
00000010: e8ad d7bb 8e9d 1fbc ace3 a13c cca1 a9bc
00000020: 4307 b03c 157c 0abc 4558 57bc bdee 90bc
00000030: d565 3a3c e48d aebc 0030 0e3d c77f 383c
00000040: deb4 8cbc f0c5 193c fcb2 b1bc 830e 83bc
00000050: 06ab 8dbc 156e ef3b 1eb9 0ebc 6487 c6bb
00000060: 9edd b9bc 7ed2 d6bc 00d8 5c3c c6ff c4ba
00000070: 77fd c2bc be77 6fbc 6df1 1e3d 3d80 0f3c
00000080: 2a02 a83b 9041 a03b e62e 1c3b 2114 e43a
00000090: 55b6 35bc ee95 1ebc 9446 c7bc 4ebf b9bb
000000a0: 9f30 b2bc d4b1 4fbb 47bd 7f3b e8b5 b1bc
000000b0: be84 e0bc bb2f 8dbc 1d07 e83b 512c 1b3c
000000c0: 9ef3 d6bc 702c 9cbc 5e25 d4bc 6703 c43c
000000d0: 2152 ac3c 2c18 edba db62 81bc f3ba aabc
000000e0: 9967 053c 0ef9 583c f99a b5bc d8ae a73c
000000f0: 4210 6a3c d7ce 14bc cdac 5bbb d701 d5bc
00000100: 363f aebc 2af3 15bc f1ba 4b3b 1607 87bb
00000110: be88 11bc 459d 193c 9df8 e2bc 1a65 9fbb
00000120: 980f 56bc 68b4 e4bb 820b c13b 4990 903c
00000130: 7b10 903b 6474 593b 0786 0ebb 5619 4a3c
00000140: 3e3f 88bc 4a00 83bc c234 05bd 193b 35bc
00000150: 3207 76bc 2e08 33bc df2e b73a 5f6f 3e3c
00000160: 05a1 85bc 95b7 043c 66df 5d3c 6965 f6ba
00000170: 9d16 07bb 7005 b8bc a777 fa3b 9f41 e5bc
00000180: 161d 753a 1126 763c 0208 54bc 8a7e 473c
00000190: e20d 463b f3ed 3c3c 2e47 c73b 6e7e 833c
000001a0: 8040 acbc 1ffa 1ebc 9010 b3bc 8586 993c
000001b0: 8286 80bc 358d 413c fc63 653c 89b8 aabc
000001c0: e6b5 3d3b a12e a0bc f065 c6bb 89d1 6c3c
000001d0: 7cc9 9e3a 1a7f 943c 07d5 9fba 0997 333c
000001e0: 8412 8d39 3735 c83c 2c46 8a3c 7efa 9d3c
000001f0: e062 003c d2ef 3b3b a809 8bbc 4290 37bc
00000200: 0efb b43b 289d 98bc 302f 9abc efb4 89bc
00000210: e8b4 a53c a4dd b5bc 2b41 1ebc cdf5 a4bb
00000220: 702f ee3b 95a4 003b 2098 16bd 653a 01bc
00000230: fae6 8f3b 23af 54bc 45e9 893c c88d 90bb
00000240: 0031 99bc 1cff 09bc c828 913b dc27 7239
00000250: e8c6 b2bc 9540 803b
0.021268219 -0.015482043 -0.0037823252 -0.016141115 -0.0065820105 -0.009742154 0.019761883 -0.020707034
0.021487838 -0.008452435 -0.013143604 -0.017691964 0.011376818 -0.021307893 0.034713745 0.011260933
-0.017176088 0.009385571 -0.021691792 -0.01599813 -0.017293464 0.007306824 -0.008711128 -0.0060586203
-0.022688683 -0.026223417 0.013479233 -0.001502984 -0.023802502 -0.014615951 0.03880446 0.008758602
0.005127211 0.004890628 0.0023831665 0.0017401018 -0.011090835 -0.009679301 -0.024325646 -0.0056685572
-0.0217517 -0.0031691687 0.003902273 -0.021693185 -0.027407046 -0.017234674 0.007080926 0.009471015
-0.026239213 -0.019064158 -0.025896724 0.023927404 0.021035256 -0.0018088869 -0.015794208 -0.020841097
0.008142375 0.013242973 -0.022168623 0.020469114 0.014286103 -0.009082518 -0.0033519745 -0.026001854
-0.021270376 -0.009152213 0.0031086768 -0.0041207178 -0.0088826995 0.009375875 -0.027706439 -0.004864347
-0.013065241 -0.006979514 0.0058912644 0.017646926 0.004396496 0.0033180946 -0.0021747367 0.012335142
-0.016631719 -0.015991349 -0.032521017 -0.011061453 -0.015016364 -0.010927243 0.0013975761 0.011623233
-0.016312132 0.00810041 0.013542032 -0.0018798533 -0.0020612844 -0.02246353 0.007643658 -0.027985392
0.00093503424 0.015023724 -0.012941362 0.012176165 0.0030220677 0.011531341 0.0060814833 0.016051497
-0.02102685 -0.009703188 -0.021858484 0.018740902 -0.015689138 0.011813452 0.014000889 -0.020839946
0.0028947531 -0.019553484 -0.0060546324 0.014454254 0.001211449 0.018127013 -0.0012194224 0.010961303
0.0002690741 0.024439437 0.016879164 0.019284483 0.007836074 0.002867688 -0.016972378 -0.011203827
0.005523092 -0.018629625 -0.018821329 -0.016809909 0.020227864 -0.022200413 -0.009659092 -0.0050341845
0.0072688386 0.0019629349 -0.03676617 -0.0078874575 0.004391548 -0.012981209 0.016834864 -0.004411433
-0.018700123 -0.008422639 0.0044299103 0.00023093767 -0.021823362 0.003913949
